DQN/pth/10x10/dqn_agent_5000.pth (torch, 22094 bytes, 6 tensors)

fc1.weight f4 [64, 6]
0	0xbe25c2ed	-0.1618764
1	0xbed2b938	-0.41156936
2	0xbeb2b061	-0.3490019
3	0x3e15e6fc	0.14638895
4	0xbe514c49	-0.20439257
5	0x3d1fc1eb	0.039003294
6	0x3d9d6d33	0.07686844
7	0x3e1020d6	0.14075026
8	0xbe02ae19	-0.12761725
9	0xbe6cce52	-0.2312558
10	0xbe93afd3	-0.2884508
11	0x3dc62d56	0.09676616
12	0x3cd44f87	0.025916828
13	0xbe07e662	-0.13271478
14	0x3d1b297d	0.037881363
15	0xbe0700dc	-0.13183922
16	0x3c6e2fc3	0.0145377545
17	0xbe4ad87f	-0.19809149
18	0x3c6b2858	0.01435288
19	0x3ea4090e	0.32038158
20	0xbdb770a1	-0.08957029
21	0xbdf74a5a	-0.12074728
22	0xbdfcbbe8	-0.12340528
23	0xbea30291	-0.31837896
24	0x3e98f3f0	0.2987361
25	0x400ae50e	2.1702304
26	0xbf36b295	-0.71366245
27	0xbd505334	-0.0508606
28	0xbd6ba4d6	-0.057530247
29	0x3ea0b399	0.31387022
30	0xbebdb8fa	-0.37055188
31	0xbe3bd4d6	-0.18342909
32	0xbea95afb	-0.33077225
33	0xbe29064a	-0.16506305
34	0xbe8f5daf	-0.28001162
35	0xbd94cc53	-0.07265534
36	0x3f2d5411	0.677064
37	0x3d8ecbac	0.06972441
38	0x3e0e8eed	0.1392171
39	0x3e1f881e	0.15579268
40	0xbf13e928	-0.57777643
41	0xbefc989d	-0.49335185
42	0x3e3831d7	0.17987762
43	0xc025957a	-2.5872483
44	0xbf459e9f	-0.7719516
45	0xc0225f96	-2.537084
46	0x3e20b1d6	0.15692839
47	0xbec2abd6	-0.38021725
48	0xbed87652	-0.4227777
49	0x3d8d3ac6	0.06895976
50	0xbf7c1a74	-0.98477864
51	0xbe0411af	-0.12897371
52	0xbdc12c3c	-0.09432265
53	0x3ce06c8a	0.027395505
54	0xbe663d9c	-0.2248444
55	0xc0f5c38c	-7.6801205
56	0xbea3677c	-0.3191489
57	0xbeae528e	-0.3404736
58	0x3e34989f	0.17636345
59	0xbe3064c5	-0.1722594
60	0x3ccc430c	0.024934314
61	0x3dc16cb0	0.094445586
62	0x3e5bfabf	0.21482371
63	0xbe2e6dbe	-0.17034051
64	0xbdd15ff1	-0.102233775
65	0xbe77c7fa	-0.24197379
66	0xbe815e36	-0.2526719
67	0x4080db80	4.0267944
68	0x3fe649c0	1.7991257
69	0xbf90e3f0	-1.1319561
70	0x3e8070b8	0.25085998
71	0xbdc9f0e1	-0.09860397
72	0xbd7b74c4	-0.061390653
73	0xba06f053	-0.00051475054
74	0xbe39f8b7	-0.18161283
75	0x3ded9c67	0.11602097
76	0xbe23bbf6	-0.1598967
77	0x3c60dc80	0.013724446
78	0x3e8a245d	0.26980868
79	0xbe0b496d	-0.13602228
80	0xbebde092	-0.37085396
81	0xbe1a2eea	-0.15056959
82	0xbe39e339	-0.18153085
83	0xbe9b2388	-0.30300546
84	0x3e1ed3f3	0.1551054
85	0xbd4dc645	-0.050237913
86	0xbea62924	-0.32453263
87	0x3a96c3cb	0.0011502443
88	0xbde68acd	-0.11256943
89	0xbeb0a468	-0.34500432
90	0xc0151909	-2.329653
91	0xc0d92f56	-6.7870283
92	0x3e585e5a	0.21129742
93	0xbfb4ef8d	-1.4135605
94	0xbe2b70df	-0.16742276
95	0xbc78f639	-0.015195423
96	0xbd68595e	-0.056725852
97	0x3e576f8d	0.21038647
98	0xbe67cc90	-0.22636628
99	0x3d9ff64d	0.0781065
100	0xbee2ba1a	-0.4428261
101	0x3e20a147	0.15686522
102	0x3ee3e3d2	0.4450975
103	0xc05f6260	-3.4903793
104	0xbed49fdd	-0.41528216
105	0xc0063505	-2.096986
106	0xbee39595	-0.4445006
107	0x3c881cbe	0.016615268
108	0xc1ca2b59	-25.271166
109	0xbf88adf7	-1.067809
110	0x3f4d5c96	0.802194
111	0xbf37ad50	-0.7174883
112	0x3f177a26	0.5917076
113	0x3f97264b	1.1808561
114	0x3ee212bd	0.4415492
115	0xbfb7cecb	-1.4359983
116	0xbf9b24ed	-1.2120644
117	0xc00ac520	-2.1682816
118	0xbe9acae6	-0.30232924
119	0xbdf327d2	-0.118728295
120	0xc042cc72	-3.0437284
121	0x3f738464	0.9512389
122	0x40173b74	2.3630037
123	0x3f161713	0.5862896
124	0x3dca4b2f	0.098776214
125	0x3f209fa8	0.62743616
126	0xbc0b070d	-0.008485568
127	0xbe1882f1	-0.148937
128	0x3e76240a	0.24037185
129	0xbed6664a	-0.41874915
130	0xbdc157f9	-0.094406076
131	0xbde22f6d	-0.11044202
132	0x3ed74a80	0.42049026
133	0xbf8ecd4c	-1.1156402
134	0xbee1201e	-0.43969816
135	0xbf923339	-1.1421882
136	0xbe04843b	-0.12941067
137	0xbe7c5d9d	-0.24645086
138	0xbe756345	-0.2396365
139	0xbfa85bbd	-1.3152996
140	0x3e88d305	0.26723495
141	0xc00beb66	-2.1862426
142	0xbe7ec4cc	-0.2487976
143	0xbd2f658f	-0.042821463
144	0xbd3de8ea	-0.046364702
145	0x3ea76e73	0.32701454
146	0xbe13c3bd	-0.14430137
147	0x3e02f3ae	0.12788269
148	0xbec1dc11	-0.3786321
149	0xbeb3c900	-0.35114288
150	0x3cb5857a	0.022158373
151	0xbd90bd13	-0.07067313
152	0xbce58523	-0.028017586
153	0xbeae0868	-0.33990788
154	0xbeaebcab	-0.34128317
155	0xbc9f7ea6	-0.01946957
156	0x3bc94dab	0.006143292
157	0xbfd941ae	-1.6973169
158	0x3ee1ddc8	0.44114518
159	0xbe9a860d	-0.30180398
160	0xbe3bf82a	-0.18356386
161	0xbe8bab94	-0.2727934
162	0xbe819e36	-0.25316018
163	0xbfbf507e	-1.4946439
164	0xbf67bdd6	-0.9052404
165	0xbf666c2d	-0.90008813
166	0xbd2b996c	-0.04189436
167	0x3d2ebfd5	0.042663414
168	0x3eb1162e	0.34587234
169	0xbed11c0b	-0.40841708
170	0x3d17d8c0	0.037071943
171	0x3e3068e7	0.17227517
172	0xbed4c36e	-0.4155535
173	0xbe84136b	-0.25796065
174	0x3e72b33f	0.2370119
175	0xbd58012f	-0.052735504
176	0xbe5545b0	-0.20827365
177	0xbde4934d	-0.11160908
178	0xbdf62e1b	-0.12020513
179	0xbec57e41	-0.38572887
180	0x3eaaba8c	0.3334545
181	0xbd1eb813	-0.038749766
182	0x3bb55b4a	0.005534564
183	0x3e4ca06c	0.19983071
184	0xbe5364b9	-0.20643891
185	0xbe92d0c9	-0.28674915
186	0xc02f14b0	-2.7356377
187	0xc09139c2	-4.5383005
188	0xc0802f3a	-4.005765
189	0xc09d1908	-4.9093056
190	0x3d61dc01	0.055141453
191	0x3e67a183	0.22620206
192	0xc0bb8c59	-5.8608823
193	0xc0ad1cbb	-5.409757
194	0xc044191e	-3.064033
195	0xbe78849a	-0.24269333
196	0x3c8beb47	0.017079962
197	0x3ca6e493	0.020372665
198	0xc106dbe7	-8.428687
199	0xc07fdd33	-3.997876
200	0xc0aac904	-5.337038
201	0xc0a215c8	-5.065159
202	0x3e4debcb	0.20109479
203	0x3e6e35bf	0.2326269
204	0x3e3d3c05	0.18479927
205	0x3c2a4c39	0.010394149
206	0xbe96ab62	-0.2942763
207	0xbe979c2b	-0.29611334
208	0xbeb145ff	-0.34623715
209	0xbecb39c8	-0.3969252
210	0x3f27218c	0.65285563
211	0x3ff883e4	1.941525
212	0xbfa747ed	-1.3068825
213	0x3fb59346	1.4185569
214	0x3efa4666	0.48881835
215	0x3e380032	0.17968825
216	0x40570c84	3.360139
217	0x4045db8d	3.0915253
218	0xbe43ea9f	-0.1913247
219	0xbd28fbc2	-0.04125572
220	0xbf9d7bc0	-1.230339
221	0xbfc901be	-1.5703657
222	0x3d9b6624	0.07587841
223	0xbe7b0235	-0.2451256
224	0xbeba5a28	-0.3639691
225	0xbd9c8be0	-0.076438665
226	0xbe09794a	-0.13425174
227	0xbcadfff9	-0.021240221
228	0xc0f0838d	-7.5160584
229	0xbf0640d8	-0.52442694
230	0xbf333eda	-0.7001778
231	0xbee52ab5	-0.44759145
232	0xbe98001f	-0.29687592
233	0x3e9ad73b	0.30242333
234	0xbe2cb888	-0.16867268
235	0xbe96b89a	-0.29437715
236	0xbd794755	-0.060859043
237	0xbeb6772e	-0.35637802
238	0xbe5028cb	-0.20328061
239	0x3dcf0502	0.10108377
240	0x400d5ab8	2.208662
241	0xbf41ed1f	-0.75752443
242	0xbf50d670	-0.81577206
243	0x3c76175c	0.015020218
244	0x3df9d6c8	0.121991694
245	0xbea0b491	-0.3138776
246	0xc09c61ad	-4.8869233
247	0xbe604694	-0.21901923
248	0xc03cce8b	-2.9501064
249	0xbd3db50d	-0.04631524
250	0x3e65e88a	0.22451988
251	0xbe80d02d	-0.25158826
252	0x3ed29ca0	0.4113512
253	0xbf9c44f6	-1.2208545
254	0xbe9a63f4	-0.30154383
255	0xbfa7bbca	-1.3104184

fc1.bias f4 [64]
0	0xbdb46453	-0.08808198
1	0xbeded8d7	-0.4352481
2	0x3eb2e24c	0.34938276
3	0x3e875347	0.26430723
4	0x3ece7488	0.4032328
5	0xbebf012a	-0.37305576
6	0xbf39f915	-0.72645694
7	0x3e0a413d	0.13501449
8	0xbe38b218	-0.18036687
9	0x3e016c2e	0.12638924
10	0xbed6ff93	-0.41991863
11	0x3e99510d	0.2994465
12	0x3d3ea8bb	0.046547633
13	0xbdbc9cad	-0.09209571
14	0xbec712e8	-0.38881612
15	0xbee739c3	-0.45161256
16	0xbe39f379	-0.18159284
17	0xbe9a4398	-0.30129695
18	0x3fa34ca0	1.2757759
19	0xbf38b173	-0.72145766
20	0xbd8490ce	-0.06472932
21	0xbeaad965	-0.33368984
22	0xbee9b5a9	-0.45646408
23	0x3d08395f	0.03325784
24	0xbde4f943	-0.111803554
25	0x3ec18ac1	0.37801173
26	0xbf239391	-0.63897043
27	0xbe391220	-0.1807332
28	0xbe8717f9	-0.26385477
29	0xbebb9ec8	-0.36644578
30	0xbeea0f3e	-0.45714754
31	0x3e02d697	0.12777172
32	0xbeab5b65	-0.33468166
33	0x3d705220	0.05867207
34	0x3bcd4b07	0.0062650475
35	0xbc8aacdd	-0.01692813
36	0xbfb77f85	-1.4335791
37	0xbcad9c76	-0.02119277
38	0x3ec2575f	0.37957284
39	0xbece2b9c	-0.40267646
40	0xbf1650db	-0.58717126
41	0x3e8f9fb5	0.28051534
42	0x3cb2b723	0.021815842
43	0x3e20cb63	0.15702586
44	0xbeb71010	-0.35754442
45	0xbe57cce5	-0.21074255
46	0x3e1ad4ca	0.15120235
47	0x3f273cce	0.65327156
48	0x3e0b831d	0.13624234
49	0x3e1301ef	0.14356206
50	0xbddeb0c1	-0.10873557
51	0x3d8144bf	0.063119404
52	0xbd5f7380	-0.05455351
53	0xbed2c85f	-0.41168496
54	0xbc306ae1	-0.010767669
55	0xbe725da0	-0.23668528
56	0xbe1f137c	-0.15534776
57	0xbf2abc1b	-0.66693276
58	0x3e0d9de5	0.13829763
59	0xbedd96cb	-0.43279108
60	0xbeea3aab	-0.45747885
61	0xbe7d1088	-0.24713337
62	0xbf27103d	-0.6525915
63	0xbee5a086	-0.44849032

fc2.weight f4 [64, 64]
0	0xbd337e29	-0.043821488
1	0xbdc3dd1a	-0.09563656
2	0x3d673e30	0.05645579
3	0x3da956a8	0.082684815
4	0xc06adda5	-3.669778
5	0x3c4f4d10	0.0126526505
6	0xbbd0b9a1	-0.006369785
7	0xbe4f27b5	-0.20229991
8	0x3c5ce760	0.0134828985
9	0x3f88ca4a	1.0686734
10	0xbd6815c9	-0.0566614
11	0xc067a99f	-3.6197278
12	0xbe148b6a	-0.14506307
13	0xbc8855d8	-0.016642496
14	0xbdd360c0	-0.10321188
15	0xbf0b2e0e	-0.5436715
16	0xbe19db7d	-0.15025134
17	0xbe37616a	-0.17908254
18	0x3f707cdc	0.9394052
19	0xbd07fbf2	-0.03319926
20	0xc0150de2	-2.3289723
21	0xbde6c9d6	-0.11268966
22	0x3d053c38	0.032528132
23	0x3ed21f2a	0.410394
24	0xbd123ccc	-0.03570251
25	0x3df92c16	0.12166612
26	0x3f7f5db3	0.9975235
27	0xbdacdca0	-0.084405184
28	0x3d1bd6d0	0.038046658
29	0xbd7f6c64	-0.06235923
30	0x3dc1e12a	0.09466775
31	0xbfca8c3d	-1.5824047
32	0xbfa2a073	-1.2705215
33	0xbd7b8eb3	-0.061415385
34	0xbd2465f0	-0.040136278
35	0x3f583d4b	0.84468526
36	0xbf8cf5f7	-1.1012563
37	0x3df1e688	0.118115485
38	0x3f1c3a64	0.610266
39	0x3dc34a44	0.095356494
40	0xbe7dea52	-0.24796417
41	0x3df16fe5	0.1178892
42	0xbe3e9b4d	-0.1861393
43	0xbcaf9a3d	-0.021435851
44	0xbdfc96fa	-0.12333484
45	0xbdd074b8	-0.10178512
46	0x3d5073d4	0.050891712
47	0x3fc7feb0	1.56246
48	0xbd07d3d7	-0.03316101
49	0xbd981b4a	-0.0742708
50	0x3dbcf957	0.09227245
51	0x3d85c470	0.06531608
52	0x3c8cb92b	0.017178139
53	0xbdc57ba2	-0.09642722
54	0xc0ea61c8	-7.324436
55	0x3e672fcf	0.22576831
56	0xbd0e64f4	-0.034764245
57	0xbe897731	-0.26848748
58	0x3eba88f3	0.3643261
59	0xbc172e81	-0.009227396
60	0xbd9e656c	-0.077341884
61	0x3d3c7d9c	0.046018228
62	0x3c3b476c	0.0114306025
63	0xbfc316fb	-1.5241388
64	0xbba443a4	-0.005012946
65	0x3df55980	0.119799614
66	0xbd9efd6a	-0.07763179
67	0xbc957778	-0.018245444
68	0x3dba756a	0.09104426
69	0x3da848ea	0.08217032
70	0xbfb001f6	-1.3750598
71	0xbe4bfc8e	-0.1992056
72	0x3e461cdb	0.19346945
73	0xbf65ac88	-0.89716387
74	0xbdae9bf0	-0.085258365
75	0x3d6221ab	0.05520789
76	0x3d407b4f	0.046992596
77	0x3dc6ec2a	0.097130135
78	0xbd78958c	-0.060689494
79	0xbdfa4132	-0.12219466
80	0xbd47388d	-0.048637915
81	0x3f016ffb	0.50561494
82	0xbf43b25b	-0.76444024
83	0x3e90ae39	0.2825792
84	0xbea36aa5	-0.319173
85	0xbcc53472	-0.02407286
86	0x3ec08bcb	0.37606654
87	0x3da22fd1	0.079192765
88	0xbc742570	-0.014901504
89	0x3d48b248	0.048998147
90	0xbf231ffc	-0.6372068
91	0x3e69e4ea	0.2284123
92	0xbd2f73c4	-0.042835012
93	0xbd15fc00	-0.03661728
94	0xbd98d04c	-0.074616045
95	0x3e9c234b	0.30495676
96	0xbefbcf64	-0.49181664
97	0xbe220359	-0.1582159
98	0xbd1bc13c	-0.03802608
99	0x3e2629f2	0.16226938
100	0xc07d99a1	-3.9625018
101	0x3c393ad0	0.011305526
102	0xbfb2f6be	-1.398155
103	0x3bb1da60	0.0054276437
104	0xbf400bd3	-0.7501804
105	0xbd9c5209	-0.076328345
106	0x3de9df28	0.11419517
107	0x3f11df37	0.56981224
108	0x3bdcf660	0.0067432374
109	0x3f5b06b7	0.8555712
110	0xbdecf386	-0.11569886
111	0x3fa29968	1.2703066
112	0x3f605333	0.8762695
113	0x3c909c7c	0.017652743
114	0x3f2ff530	0.687335
115	0xbcf255c5	-0.029581914
116	0x3d0af205	0.033922214
117	0xbd1b9938	-0.037987918
118	0xbe20be87	-0.1569768
119	0xbf724988	-0.9464345
120	0x3d87eaba	0.066365674
121	0xbeabdd70	-0.3356738
122	0x3faa3eb2	1.3300383
123	0x3f2042d1	0.62601954
124	0x3e0e6a88	0.13907826
125	0x3f174f16	0.5910505
126	0x3ec23e75	0.37938276
127	0xbed8dd7e	-0.42356485
128	0xbe1edb13	-0.15513258
129	0xbd9bf648	-0.07615334
130	0x3d80452e	0.06263195
131	0x3d2b2a14	0.041788176
132	0x3e9a3919	0.30121687
133	0xbc1ad6e0	-0.009450644
134	0x3f89867e	1.0744169
135	0x3fad1689	1.3522502
136	0x3efd021a	0.49415666
137	0x3f9f7095	1.2456232
138	0xbdbf050e	-0.09327136
139	0xbfc30bc4	-1.5237966
140	0x3d45cfc0	0.04829383
141	0xbda4af54	-0.08041254
142	0xbbc66c60	-0.0060554
143	0x3ff97d87	1.9491433
144	0x3ce32ff0	0.02773282
145	0x3f8da88b	1.106706
146	0xbec96e9b	-0.39342198
147	0x3f800461	1.0001336
148	0xbe3d12fc	-0.18464273
149	0xbdeda684	-0.11604026
150	0x3f5e5d31	0.8686095
151	0xbd95136a	-0.072790936
152	0xbd90426c	-0.07043919
153	0x3c39f500	0.011349916
154	0x3fda39fb	1.7048944
155	0x3f0d8842	0.5528604
156	0x3dbfc27c	0.09363267
157	0xbd9928f2	-0.07478513
158	0xbdd88038	-0.10571331
159	0x3d78c4c2	0.060734518
160	0xbe9c63dc	-0.30544937
161	0xbe547ac8	-0.20749962
162	0x3c08a2f0	0.008339629
163	0xbf430a29	-0.7618738
164	0xc0418f0b	-3.0243556
165	0x3c591250	0.013248995
166	0xbe51cdbe	-0.2048864
167	0x3d4ef514	0.050526693
168	0xc003dae2	-2.0602345
169	0x3d5d118d	0.053971816
170	0x3f696eb3	0.9118454
171	0x3fc4fd38	1.5389776
172	0x3ceafbf5	0.028684596
173	0x3f2408e9	0.64076096
174	0x3da65d78	0.081232965
175	0xbe50198b	-0.20322244
176	0x3dbd45a3	0.09241798
177	0x3dcecd04	0.100976974
178	0x3fac3e0c	1.3456435
179	0xba143800	-0.00056540966
180	0xbd30831c	-0.043093786
181	0x3dbce1dc	0.09222767
182	0xbf385235	-0.7200044
183	0xbe95b1f7	-0.2923734
184	0x3dcf6666	0.10126953
185	0x3ef1a246	0.47194117
186	0xbe872e2d	-0.26402417
187	0xbf62b4dd	-0.88557225
188	0xbdaaa10e	-0.083315
189	0x3f57f6e6	0.8436111
190	0xbd7813e9	-0.060565863
191	0xbfb90f6f	-1.4457835
192	0x3d8214c0	0.06351614
193	0x3d371e0e	0.044706397
194	0xbdccdf58	-0.10003537
195	0x3d1ecf4a	0.038771905
196	0xc00be58f	-2.1858861
197	0xbdc0ac52	-0.094078675
198	0x3e960594	0.2930113
199	0x3f437676	0.7635263
200	0x3f8496bf	1.0358504
201	0x3c6570aa	0.014003912
202	0xbdb841f4	-0.089969546
203	0xc0582c41	-3.377701
204	0xbd820605	-0.063488044
205	0x3dcb02b0	0.09912622
206	0xbdd886be	-0.10572575
207	0x3fbe048f	1.4845141
208	0x3d46796a	0.048455633
209	0xbf4a281f	-0.7896747
210	0xbeb0eb15	-0.34554353
211	0x3fc561b5	1.5420443
212	0xc084d522	-4.151017
213	0x3dd97ae0	0.1061914
214	0x3f2d4301	0.67680365
215	0xbdd7d4f7	-0.10538667
216	0x3dc14ef0	0.09438884
217	0x3dc5b4e4	0.09653643
218	0x3f78e429	0.97223145
219	0x3f11a6d8	0.5689521
220	0xbdfa67f3	-0.12226858
221	0x3c043020	0.0080681145
222	0x3da2466b	0.079235874
223	0xbe8f32ae	-0.27968353
224	0xbf7c6f57	-0.9860739
225	0xbf902572	-1.1261427
226	0xbb3b92c0	-0.0028621405
227	0xbd2f0be4	-0.04273595
228	0xbf24e592	-0.64412796
229	0x3d867de0	0.065669775
230	0xc02efb53	-2.7340896
231	0x3d00a10c	0.031403586
232	0x3ec624e6	0.38700026
233	0x3d8b19f0	0.067920566
234	0x3f79ddbb	0.9760396
235	0x3faa300a	1.329591
236	0x3cc7a1c1	0.024369122
237	0xbf5027ef	-0.81310934
238	0x3de1f65e	0.11033319
239	0xbed97f26	-0.4247982
240	0x3c7ca5e4	0.015420411
241	0xbcc0a0eb	-0.023514232
242	0x3f82d388	1.0220804
243	0x3c9705b7	0.018435342
244	0xbd951052	-0.072785035
245	0xbd72d145	-0.059281606
246	0xc04570ae	-3.0850024
247	0xc062b91c	-3.5425482
248	0xbd350af4	-0.0441999
249	0x3cccb6c3	0.024989491
250	0x3f08e16c	0.53468966
251	0x3f1d32f3	0.6140587
252	0xbe16d3e4	-0.14729267
253	0x3f4974be	0.7869376
254	0xbf5a9bdc	-0.8539407
255	0xbf4c9fe4	-0.79931474

fc2.bias f4 [64]
0	0xbfdff1e9	-1.74957
1	0xbef359b9	-0.4752939
2	0x404758e3	3.1148002
3	0xbf26c6eb	-0.65147275
4	0xbdfca63b	-0.123363934
5	0xbe8f7403	-0.28018197
6	0xbefc5859	-0.49286154
7	0xbe284f4a	-0.16436496
8	0xbe24835a	-0.16065732
9	0xbf1a781d	-0.6033953
10	0x3f347c59	0.7050224
11	0xbe6d7fb6	-0.23193249
12	0xbbc7520c	-0.006082779
13	0xc1422d59	-12.136071
14	0x3ee7b796	0.45257252
15	0xbc029e33	-0.007972288
16	0xbfd0f0e1	-1.632351
17	0xc0036ce0	-2.0535202
18	0x406c11ec	3.6885939
19	0xbfed7419	-1.8551055
20	0xbe469fc1	-0.19396879
21	0x3f0bcfeb	0.5461413
22	0x409a3f8f	4.8202586
23	0xc0736a7d	-3.8033745
24	0xbf9da8a8	-1.2317095
25	0xc02cdcd1	-2.7009776
26	0xc0ca427d	-6.3206162
27	0xbec32abe	-0.38118547
28	0xbf7fd1c1	-0.99929434
29	0x3fbd43e9	1.478635
30	0xbf8f8aa0	-1.121418
31	0xbe5525a6	-0.20815143
32	0xbc1b8429	-0.009491959
33	0xbf412932	-0.75453484
34	0x3fb30a8a	1.3987591
35	0xbec7e8d9	-0.39044836
36	0x3f713292	0.9421779
37	0xbf2fc962	-0.6866666
38	0xbf7d0e9a	-0.98850405
39	0xbf49a9d7	-0.7877478
40	0xc02845c9	-2.6292593
41	0x3eef5329	0.46743134
42	0x400b118d	2.1729462
43	0xbf17509e	-0.5910739
44	0x410df021	8.871125
45	0x407e2719	3.9711363
46	0xbe2e963c	-0.17049497
47	0x3ffedf25	1.9911848
48	0xbe366cec	-0.17814988
49	0xbfe5958a	-1.7936261
50	0x403f178f	2.985813
51	0xbead021f	-0.3379068
52	0x3f01f4ee	0.5076436
53	0xbf681dff	-0.9067077
54	0xbe8a1d5f	-0.26975533
55	0xbd455860	-0.048179984
56	0xbff2c064	-1.8964963
57	0xc0430369	-3.0470831
58	0xc0a6eb42	-5.216218
59	0x4022f847	2.5464036
60	0xbdae487b	-0.08509918
61	0x3e986ddd	0.2977132
62	0xbddf1dde	-0.108943686
63	0x402aa6ea	2.6664376

fc3.weight f4 [4, 64]
0	0xbe59e8d3	-0.21280222
1	0x3f57c25e	0.84280956
2	0x3e86af29	0.26305512
3	0x3f041132	0.5158874
4	0xbb11af0c	-0.002222958
5	0xbd188523	-0.037236344
6	0x3c50cb64	0.012743805
7	0xbbef1f07	-0.0072974
8	0xbcc228ef	-0.02370116
9	0x3decf8db	0.11570903
10	0x3e83c5fe	0.25736994
11	0xbe1986c2	-0.14992812
12	0x3f9ad2c4	1.209557
13	0x3dd98c1d	0.106224276
14	0x3f130899	0.57434994
15	0xbd30d21c	-0.043169126
16	0x3ed13fb9	0.4086893
17	0x3f7dc672	0.9913093
18	0xbae8fcd8	-0.0017775549
19	0x3e0be205	0.13660438
20	0x3d38eacb	0.04514579
21	0x3d8b80df	0.068116896
22	0x3ed7702f	0.42077777
23	0x3d9df611	0.07712949
24	0x3e18915b	0.14899199
25	0xbee3f756	-0.4452464
26	0x3ede2cf4	0.43393672
27	0xbc9b72ea	-0.018975694
28	0x3ed113ea	0.40835506
29	0xbe970696	-0.29497212
30	0x3f4957f2	0.7864982
31	0x3c64f4ff	0.013974427
32	0xbc7fdc80	-0.015616536
33	0x3ee31e74	0.4435917
34	0xbe7e5602	-0.24837497
35	0xbf1eef36	-0.62083757
36	0xbd4241c7	-0.04742601
37	0xbf0b0089	-0.5429769
38	0xbe4f0511	-0.20216776
39	0x3f5399ec	0.8265674
40	0xbd6e62e5	-0.058199782
41	0xbf27aa3f	-0.6549415
42	0x3e39b842	0.18136695
43	0xbf29f44d	-0.663884
44	0x3e2e45a1	0.17018749
45	0x3f0d3632	0.5516082
46	0xbf4ce80a	-0.80041564
47	0x3eb60edd	0.35558215
48	0x3dd15789	0.10221774
49	0x3f84f851	1.038828
50	0x3ec3b019	0.3822029
51	0x3e89d78f	0.2692227
52	0xbf6dbe55	-0.9286855
53	0xbf41811f	-0.7558765
54	0xbd24a000	-0.04019165
55	0xbe675cd6	-0.22594008
56	0xbe49ba35	-0.19699939
57	0xbff03a50	-1.8767796
58	0x3f4279f7	0.75967354
59	0x3f034f65	0.5129302
60	0xbb2d9017	-0.002648359
61	0x3fc42a09	1.5325328
62	0xbd24599b	-0.040124517
63	0x3e5fee1e	0.21868178
64	0x3d4a8e69	0.04945222
65	0x3f0693b1	0.5256911
66	0x3da299da	0.07939501
67	0x3d4242e5	0.047427077
68	0x3c0ca106	0.008583313
69	0x3ca4e9b9	0.020130979
70	0x3dfd506f	0.12368857
71	0x3bb5bcd1	0.0055461903
72	0x3c54ae12	0.012980955
73	0xbe823de7	-0.25437853
74	0x3cb560b8	0.022140846
75	0x3d519635	0.05116864
76	0xbf474dad	-0.778529
77	0x3f0fb42f	0.56134313
78	0x3ddc6e81	0.107632644
79	0xbd166ee3	-0.036726844
80	0x3f2f7e72	0.68552315
81	0x3f0fe293	0.562051
82	0xbf111b84	-0.5668261
83	0x3d96f88f	0.073716275
84	0x3defdeba	0.117124036
85	0xbf4325ab	-0.7622935
86	0x3f6d0e02	0.925995
87	0x3e54c06b	0.20776527
88	0xbf2f2941	-0.68422323
89	0xbf483060	-0.78198814
90	0x3ef865d9	0.48515204
91	0x3cd1fc3d	0.025632972
92	0xbf2953e4	-0.6614363
93	0xbe89cf57	-0.26916
94	0xbe4a24a1	-0.19740535
95	0xbd68ac8c	-0.05680518
96	0xbce26eef	-0.027640788
97	0x3f8e1eef	1.110319
98	0xbf0f879d	-0.56066304
99	0x3f4bc452	0.79596436
100	0x3dd6b293	0.10483279
101	0x3d8713da	0.06595583
102	0x3d5df880	0.054192066
103	0xbee61610	-0.44938707
104	0x3d270f12	0.040785857
105	0xbf689ae8	-0.9086137
106	0x3c223fd1	0.00990291
107	0x3ef5db04	0.48018658
108	0xbdf0a262	-0.11749722
109	0x3e61e080	0.22058296
110	0xbfbb3a01	-1.4627076
111	0xbedcefbd	-0.43151656
112	0x3def5aad	0.11687217
113	0x3f059c68	0.5219178
114	0x3d838e34	0.064236075
115	0x3f1d1762	0.61363804
116	0xbede8690	-0.43462038
117	0x3f56bb68	0.8387971
118	0xbca11b5a	-0.019666363
119	0x3da510c0	0.080598354
120	0xbd01c0cc	-0.031678006
121	0xbdd46bc1	-0.10372115
122	0x3f6bdc23	0.92132777
123	0x3f7bcb37	0.98356956
124	0x39fe311f	0.00048483253
125	0x3dd882f8	0.10571855
126	0xbc5c9053	-0.013462144
127	0x3e5b4d62	0.21416238
128	0xbe56e0b9	-0.20984162
129	0x3f99e8b7	1.2024144
130	0x3e7f5e7e	0.2493839
131	0x3df43871	0.11924828
132	0x3d98a78f	0.07453834
133	0xbc73d74a	-0.014882872
134	0xbdebce32	-0.11513938
135	0x3d7ca869	0.061684046
136	0xbd888a4b	-0.06667002
137	0x3ea8022e	0.32814163
138	0x3df17d8e	0.11791526
139	0xbd4ef941	-0.050530676
140	0x3e2979fe	0.16550443
141	0x3daa00d0	0.08300936
142	0x3f4021c9	0.7505155
143	0x3c0a7d50	0.008452728
144	0x3ecbf797	0.39837334
145	0x3f59265d	0.8482416
146	0xbedc1cda	-0.42990762
147	0x3e43d676	0.19124779
148	0xbd0e2918	-0.03470716
149	0x3f21da9f	0.63224214
150	0x3e94ad14	0.29038298
151	0x3dd78893	0.10524096
152	0xbedd2b2c	-0.43197
153	0xbfaec612	-1.3654196
154	0x3ea69a7d	0.3253974
155	0x3d91ea03	0.07124712
156	0x3ec6e207	0.3884432
157	0xbe961399	-0.29311827
158	0x3cda5246	0.02665056
159	0xbd763045	-0.060104627
160	0x3d10ddd2	0.035367794
161	0x3f1043b4	0.56353307
162	0xbf3d62b3	-0.7397873
163	0x3d55d88a	0.05220846
164	0xbe8967c0	-0.26836967
165	0x3d4aed63	0.049542796
166	0xbf166a79	-0.58756214
167	0xbf1053db	-0.56377953
168	0x3d857293	0.06515994
169	0xbf44e5c6	-0.76913106
170	0x3e4e922a	0.20172945
171	0x3ebb4275	0.3657414
172	0x3e412a5f	0.1886382
173	0xbd8551bb	-0.065097295
174	0xbf0d7cb0	-0.55268383
175	0x3e285f0a	0.16442505
176	0xbd8abf1d	-0.06774733
177	0x3f4eb75b	0.8074853
178	0x3efd15fb	0.49430832
179	0x3e3cf9c2	0.1845465
180	0xbfa5b619	-1.2946197
181	0x3f3734b8	0.7156482
182	0x3d94393c	0.07237479
183	0xbd8b1327	-0.067907624
184	0x3f06f7d8	0.5272193
185	0xbf4815a3	-0.78158015
186	0x3f382946	0.7193798
187	0x3ea570d7	0.32312652
188	0xbcd347de	-0.025791105
189	0xbeb23587	-0.34806463
190	0x3d262532	0.040562816
191	0xbc4a692e	-0.012354178
192	0x3e8fb9d3	0.2807146
193	0x3fb3d9c9	1.4050838
194	0x3e7bc0f5	0.24585326
195	0x3e4cb76a	0.19991842
196	0x3c3dd6ad	0.011586827
197	0xbce287df	-0.027652679
198	0xbfa111fc	-1.2583613
199	0xbd8364b4	-0.06415692
200	0xbd11e774	-0.03562112
201	0x3e888a45	0.2666799
202	0x3e0b40a7	0.13598882
203	0x3d32d057	0.04365572
204	0x3f882543	1.0636371
205	0x3da79046	0.08181815
206	0xbf96b752	-1.1774695
207	0x3c955567	0.0182292
208	0x3ebc939d	0.3683137
209	0x3f6a8f19	0.916246
210	0x3f2021cb	0.62551564
211	0x3e813349	0.2523444
212	0xbd802d10	-0.06258595
213	0xc015bb26	-2.3395476
214	0x3e44efb3	0.19232063
215	0xbef85191	-0.4849973
216	0xbf364095	-0.71192294
217	0xbe29ab93	-0.16569357
218	0x3eae4071	0.3403354
219	0x3dceb1ef	0.10092532
220	0xbf8bc796	-1.0920284
221	0xbe6a6cc7	-0.22893058
222	0x3f23e301	0.64018255
223	0x3b9e34bb	0.0048280633
224	0xbcc6d35a	-0.024270702
225	0x3e6a8fbf	0.22906397
226	0x3f6d5d60	0.92720604
227	0xbe5de3d6	-0.21668944
228	0x3eb1af70	0.3470416
229	0xbf75d52d	-0.96028405
230	0xbdc4d914	-0.09611717
231	0x3ea70de9	0.326278
232	0xbe986e15	-0.29771486
233	0xbf291bac	-0.6605785
234	0x3ee63ae3	0.44966802
235	0xbfa33e80	-1.2753448
236	0x3f1fc983	0.6241686
237	0x3f4e1fef	0.80517477
238	0xbf829c2b	-1.0203909
239	0x3f326c06	0.6969608
240	0x3e0fae70	0.14031386
241	0x3fa7cede	1.3110006
242	0x3f693158	0.9109092
243	0xbf2c587d	-0.6732252
244	0x3e533641	0.20626165
245	0x3eaca95b	0.33722958
246	0xbd8d4f20	-0.068998575
247	0xbedd1661	-0.43181136
248	0x3f07963f	0.5296363
249	0x3e94d2d1	0.2906709
250	0x3f1494f8	0.5803981
251	0xbe799da5	-0.24376543
252	0xbc8b368d	-0.016993785
253	0x3f8257b7	1.0183018
254	0xbbcec24c	-0.006309783
255	0x3e713868	0.23556674

fc3.bias f4 [4]
0	0x40d18047	6.546909
1	0xbe756621	-0.2396474
2	0x40d0079a	6.500928
3	0x40bb3772	5.850518
