DQN/pth/10x10/dqn_agent_500.pth (torch, 22084 bytes, 6 tensors)

fc1.weight f4 [64, 6]
0	0xbead7d9a	-0.3388489
1	0xbecffa20	-0.40620518
2	0x3e667f65	0.22509535
3	0x3c6bab8c	0.014384162
4	0xbe445db1	-0.19176365
5	0xbe4d1d99	-0.20030822
6	0x3f507ad5	0.81437427
7	0xbf59b0e2	-0.85035527
8	0xbfb65119	-1.4243499
9	0xbed063a1	-0.4070101
10	0xbf413b4c	-0.75481105
11	0xbd631998	-0.05544433
12	0x3f04de41	0.5190163
13	0xbf78b160	-0.9714565
14	0xbf9d4614	-1.2287011
15	0xbef8ed32	-0.48618466
16	0xbeb979a9	-0.36225632
17	0xbe2df414	-0.1698764
18	0xc098a6a1	-4.7703404
19	0xc0b0089f	-5.5010524
20	0xbf94308e	-1.1577318
21	0xc04e101e	-3.2197337
22	0x3df3b090	0.11898911
23	0x3d226748	0.039649278
24	0x3f119fb8	0.56884336
25	0xbeea6792	-0.45782143
26	0xbff093c8	-1.8795099
27	0xbf88e935	-1.0696169
28	0xbe921234	-0.28529513
29	0xbe5e2f8e	-0.21697828
30	0xbe1ff6c6	-0.1562148
31	0xbebcfbe8	-0.3691094
32	0xbdf12e0b	-0.1177636
33	0xbe118ba0	-0.14213419
34	0xbeac7383	-0.33681878
35	0x3e981114	0.2970053
36	0xbeb48c89	-0.3526347
37	0xbe9e4186	-0.30909365
38	0xbeb6720e	-0.35633892
39	0xbec01291	-0.37514165
40	0xbd3d808e	-0.046265177
41	0xbecafebb	-0.3964747
42	0x3ef61e79	0.48070124
43	0xbecbb9d1	-0.39790204
44	0xbfa65c03	-1.299683
45	0xbf30548a	-0.68878996
46	0xbe5e198c	-0.21689433
47	0xbe91f886	-0.2850992
48	0xbea63572	-0.3246265
49	0x3bbe76ba	0.005812493
50	0xbe17dd04	-0.14830405
51	0xbe644ecb	-0.22295682
52	0xbe9114b0	-0.28336096
53	0xbe9abaae	-0.3022055
54	0x3e12393f	0.1427965
55	0xbe2d7a5c	-0.16941208
56	0x3dc5e0fa	0.096620515
57	0x3e251d9b	0.16124575
58	0xbe3c54cc	-0.18391722
59	0xbe819e47	-0.2531607
60	0xbdb8eea5	-0.09029893
61	0x3ff423d4	1.9073434
62	0x3f66d8bd	0.90174466
63	0xbee9029a	-0.45509797
64	0xbf18bf97	-0.5966734
65	0xbe7e2b38	-0.24821174
66	0xc039f6cc	-2.9056883
67	0xc025c8f8	-2.5903912
68	0xbfb3c40a	-1.4044201
69	0x3f84827e	1.0352323
70	0x3e70489e	0.23465201
71	0x3e080bce	0.13285753
72	0x3dc9c768	0.09852487
73	0xbe1c0a3b	-0.15238278
74	0x3e35a19d	0.17737432
75	0x3dfebd8b	0.12438496
76	0xbca1c16f	-0.019745557
77	0xbeccc566	-0.39994353
78	0xbe0f9dfd	-0.14025111
79	0xbda220cb	-0.07916411
80	0xbb52ef01	-0.0032185914
81	0xbcf92ea3	-0.030417746
82	0xbda3d5fa	-0.07999797
83	0xbeb3daaa	-0.35127765
84	0xbece9031	-0.40344384
85	0x3c7f4c8c	0.015582215
86	0xbce76c31	-0.028249832
87	0xbe5cbc05	-0.21556099
88	0x3e0d2019	0.13781776
89	0xbe7723ed	-0.24134798
90	0xbb13f88b	-0.0022578563
91	0x3d413284	0.047167316
92	0xbecfa478	-0.40555167
93	0x3ecd37c9	0.40081623
94	0xbeac322c	-0.33632028
95	0xbed0cfba	-0.40783483
96	0xbefce9dd	-0.49397174
97	0x3eb32006	0.3498537
98	0xc06ffa2c	-3.7496443
99	0x3f56849c	0.83796096
100	0xbf463244	-0.7742045
101	0xbe968f31	-0.2940612
102	0xbf34761d	-0.70492727
103	0xc06f548e	-3.7395358
104	0x3fe00942	1.7502825
105	0xbfcc8722	-1.5978739
106	0xbf056c1e	-0.521181
107	0x3e3ae79b	0.18252413
108	0x3ed3aa37	0.413408
109	0xc01122de	-2.2677531
110	0x3eab9b75	0.33517042
111	0x3ef46e8a	0.47740585
112	0xbe4415f1	-0.19148995
113	0xbeba31d0	-0.3636613
114	0xbe421877	-0.18954645
115	0x3f8de54d	1.1085602
116	0xbc7390e7	-0.01486609
117	0xbd8ac96a	-0.06776698
118	0xbf2b5df9	-0.66940266
119	0xbee66f01	-0.45006564
120	0x3e241cbd	0.16026588
121	0xbfc27423	-1.5191692
122	0xbf3c12b8	-0.7346606
123	0x3eae997e	0.3410148
124	0xbedcfd4b	-0.43161997
125	0xbd0b9785	-0.034080047
126	0xbf4e10e5	-0.8049453
127	0x3f98d93b	1.1941293
128	0x3f97f782	1.1872408
129	0xbfc470ce	-1.5346925
130	0x3ea583de	0.3232717
131	0x3d91ab69	0.07112772
132	0x3ec97222	0.3934489
133	0xbd2e6f82	-0.04258681
134	0x3f828bcf	1.0198916
135	0x3e21236d	0.1573617
136	0xbe970de2	-0.2950278
137	0xbf2fdb56	-0.68694055
138	0x3ff317eb	1.8991674
139	0x3f776640	0.96640396
140	0xbf71d8d9	-0.9447151
141	0xbfb743b0	-1.4317532
142	0x3ef79984	0.4835931
143	0x3e30ec35	0.17277606
144	0x3f50206d	0.8129948
145	0xbf259515	-0.64680606
146	0xbfcc8c56	-1.5980327
147	0xbf9a4817	-1.205325
148	0xbed2adcb	-0.4114822
149	0xbea5f6a5	-0.32414737
150	0x3f174a0f	0.5909738
151	0x3fbbeaf7	1.468108
152	0xbe9b5719	-0.30339888
153	0x3f4efb92	0.80852616
154	0xbf0e4bed	-0.55584604
155	0xbf5e9f27	-0.869616
156	0xbf5cfafb	-0.86320466
157	0xbfba7838	-1.4567938
158	0x3f907f81	1.1288911
159	0x3e414fcc	0.18878096
160	0x3c73d9bd	0.014883456
161	0xbdfbbf0c	-0.12292299
162	0x3ecaf5b2	0.39640576
163	0xbf79ebb4	-0.9762528
164	0xbf94a991	-1.1614248
165	0xbf2c7725	-0.673693
166	0xbe4ab412	-0.19795254
167	0xbe37bcd2	-0.17943123
168	0xbd7a6a5d	-0.061136592
169	0xbb7ffb34	-0.003905964
170	0xbeae0ed1	-0.3399568
171	0xbe9a01ab	-0.30079398
172	0xbecf8394	-0.40530074
173	0x3e8dfff6	0.27734345
174	0x3f0b329d	0.54374105
175	0x3cde725a	0.027154136
176	0xbfb3d0cb	-1.4048094
177	0xbe984b35	-0.29744878
178	0xbd64e32c	-0.05588071
179	0xbf015055	-0.505132
180	0x3e1ff198	0.15619504
181	0xbfc254f1	-1.5182172
182	0xbf1fe351	-0.6245623
183	0xbe7dda84	-0.24790388
184	0xbe8457fb	-0.25848374
185	0x3d313e10	0.043272078
186	0x3eb0599d	0.3444337
187	0xbec72d1e	-0.3890161
188	0x3e97a508	0.29618096
189	0x3cd0c763	0.0254857
190	0xbe8fdcaf	-0.28098056
191	0xbee03533	-0.43790588
192	0x3e9166a4	0.2839862
193	0xbedd44cc	-0.4321655
194	0xbef65ae9	-0.48116234
195	0xbe488ade	-0.19584224
196	0xbef5c265	-0.47999874
197	0x3e392591	0.18080737
198	0xbf25c0a6	-0.64747083
199	0x3f86cb4f	1.0530795
200	0xbd1768bc	-0.036965117
201	0x3d34146c	0.04396479
202	0xbe0f2f78	-0.13982952
203	0x3e32c9e6	0.1745983
204	0x3e7bc541	0.24586965
205	0xbfeb6d58	-1.8392744
206	0x3d3ca5fa	0.046056725
207	0xbf315480	-0.6926956
208	0xbe46b5a5	-0.1940523
209	0xbdf83596	-0.12119596
210	0x3ebd6988	0.36994576
211	0x3f082883	0.53186816
212	0xbf01a185	-0.50637084
213	0xbdd66b69	-0.104697056
214	0xbf36cdef	-0.7140798
215	0xbdad92d6	-0.08475272
216	0xbf05b92d	-0.5223568
217	0xc041ef4a	-3.03023
218	0xbea37e2c	-0.319322
219	0xbd98cef0	-0.07461345
220	0x3f2b6c74	0.6696236
221	0x3dc77e2f	0.097408645
222	0xbe8bd96b	-0.27314314
223	0xbe18fb59	-0.14939632
224	0xbea28b98	-0.31747127
225	0xbeac54b5	-0.33658376
226	0x3d02aee1	0.03190506
227	0xbdc63f91	-0.09680093
228	0x3cbdde57	0.023177309
229	0xbde0e198	-0.109805286
230	0x3e81b9d2	0.25337082
231	0x3e52075b	0.20510618
232	0xbea36e2c	-0.31919992
233	0xbe84cf92	-0.25939614
234	0x3d8ac044	0.06774953
235	0xbdd86c0f	-0.105674855
236	0xbe0cc0e1	-0.13745452
237	0xbe54e227	-0.20789395
238	0xbd3259c1	-0.043542627
239	0xbdcede3c	-0.101009816
240	0x3fe752a2	1.8072093
241	0x3f8fd691	1.1237355
242	0xbf8d2fbe	-1.1030195
243	0xbdc763b2	-0.09735812
244	0xbe1c9b50	-0.15293622
245	0xbeedf47e	-0.46475595
246	0x3e890746	0.26763362
247	0x3e423932	0.18967131
248	0x3cbf2bca	0.02333631
249	0xbbd3e3cf	-0.006466366
250	0xbe72f0f5	-0.2372473
251	0xbe94c410	-0.29055834
252	0xbd258f0f	-0.040419634
253	0x3e3d7b85	0.1850415
254	0xc03ec551	-2.9807932
255	0x3c3f9355	0.011692842

fc1.bias f4 [64]
0	0x3ec21612	0.37907463
1	0xbd829344	-0.06375745
2	0xbdc737f9	-0.09727473
3	0xbea19d5e	-0.31565374
4	0xbf3f2d11	-0.7467814
5	0x3da88cc2	0.082299724
6	0x3d090732	0.033454128
7	0xbea1f4ea	-0.31632167
8	0xbe2c14a5	-0.1680475
9	0xbdae36a9	-0.08506519
10	0xbedc8816	-0.43072575
11	0x3f261837	0.648807
12	0xbe33aa24	-0.17545372
13	0xbea7b332	-0.32753903
14	0x3d86fb4a	0.06590898
15	0xbe805504	-0.25064862
16	0xbf29fb97	-0.6639952
17	0xbc6ee20f	-0.014580264
18	0xbd8bbb53	-0.06822839
19	0xbf47dea1	-0.7807408
20	0xbea8d2b6	-0.3297326
21	0x3ef55824	0.47918808
22	0xbefb7cf6	-0.49118775
23	0xbd2499ad	-0.04018562
24	0xbf719ba0	-0.9437809
25	0xbf755f15	-0.9584821
26	0xbe5252f4	-0.20539457
27	0xbebce556	-0.3689372
28	0x3e6294fe	0.22127149
29	0xbdd7ef7b	-0.10543724
30	0xbcac71f7	-0.021050436
31	0x3e00aec7	0.12566672
32	0xbd87e6e8	-0.06635839
33	0xbf0f9c69	-0.5609804
34	0x3e78327c	0.24238008
35	0xbf24a86d	-0.643195
36	0x3ecccd97	0.40000603
37	0xbe90411c	-0.28174675
38	0xbe6f6ef8	-0.23382175
39	0xbdef7584	-0.11692336
40	0xbd201bb0	-0.039088905
41	0x3d61891f	0.05506241
42	0xbef919ba	-0.4865244
43	0x3d990dd9	0.07473344
44	0x3ea0e0fd	0.31421652
45	0xbe4e4049	-0.2014171
46	0x3f5f7c45	0.87298995
47	0x3ec100ca	0.37695915
48	0xbe4e70e1	-0.20160247
49	0x3eb37404	0.3504945
50	0x3e02d459	0.12776317
51	0xbd9ab55e	-0.07554124
52	0x3f1cb28f	0.6120996
53	0xbea4b867	-0.32171938
54	0x3dfc4f2c	0.12319788
55	0xbe0fe660	-0.14052725
56	0xbe5ac7a6	-0.21365222
57	0x3d2c167c	0.04201363
58	0x3ee8bdbb	0.45457253
59	0xbea05fe3	-0.31323156
60	0xbe88a77d	-0.26690283
61	0xbe755424	-0.23957878
62	0x3d995c80	0.07488346
63	0x3bff6bc5	0.0077948296

fc2.weight f4 [64, 64]
0	0x3d734450	0.05939132
1	0x3e821633	0.25407562
2	0x3e8ac427	0.27102777
3	0xbdf75129	-0.12076027
4	0x3e926faf	0.28600833
5	0xbdcc0b3a	-0.09963079
6	0x3d8c846c	0.06861195
7	0x3e891f92	0.267819
8	0xbc4b8810	-0.012422577
9	0x3c5a2f30	0.013316914
10	0xbf7ebf1d	-0.99510366
11	0xbe9fcf11	-0.31212667
12	0xbdb6205a	-0.08892889
13	0xbc8f3898	-0.01748304
14	0xbdcfa788	-0.10139376
15	0x3db90698	0.09034461
16	0x3f511212	0.816682
17	0xc00e1b0b	-2.2204006
18	0xbfa856e0	-1.3151512
19	0x3f5a6c58	0.8532157
20	0xbfab49de	-1.3381917
21	0xbfcce110	-1.6006184
22	0x3fb9fff0	1.4531231
23	0x3deceb3a	0.115683034
24	0x3e089305	0.13337334
25	0x3f3a60d3	0.7280399
26	0xbfaed5bd	-1.3658978
27	0x3e9cc473	0.3061863
28	0x3d53f328	0.051745564
29	0xbc0ba724	-0.008523736
30	0xbe8f9da5	-0.2804996
31	0xb9c07600	-0.0003670901
32	0x3e187f13	0.14892225
33	0x3f8e374b	1.1110624
34	0xbf251ed5	-0.6450017
35	0x3f40c821	0.7530537
36	0xbf8f10af	-1.1176966
37	0xbcde6a08	-0.027150169
38	0xbdb95ecc	-0.09051284
39	0x3d572493	0.052525114
40	0x3ebd7f3e	0.3701114
41	0xbd0d5eb8	-0.03451416
42	0xbcd62c37	-0.02614413
43	0x3f5ed1ea	0.87039053
44	0xbdc490c8	-0.09597927
45	0xbd9be582	-0.076121345
46	0xbf9c35c0	-1.2203903
47	0xbf85851b	-1.0431246
48	0x3dde676e	0.108595714
49	0xbfb3806f	-1.402357
50	0x3bb4df00	0.0055197477
51	0xbe68f016	-0.22747836
52	0xbfd69fca	-1.6767514
53	0x3f9af8b4	1.2107148
54	0xbf020e1c	-0.5080278
55	0x3ecaa1b9	0.3957651
56	0xbe09d496	-0.13460001
57	0x3d1cbabc	0.03826402
58	0xbda4f51f	-0.08054566
59	0xbeb1c981	-0.34724048
60	0x3e142db3	0.14470558
61	0xbf87424d	-1.0567108
62	0x3dc6d4e8	0.097085774
63	0x3f4a3cef	0.7899923
64	0x3dcc9d7c	0.09990975
65	0x3e26ae89	0.16277517
66	0x3ef4870a	0.47759277
67	0x3d62e1d9	0.055391166
68	0x3f1fb003	0.6237795
69	0xbdeaee24	-0.11471203
70	0xbc50af00	-0.012737036
71	0x3db449d9	0.08803148
72	0xbde94ba2	-0.11391379
73	0xbb97c060	-0.004631087
74	0xbfba6ea6	-1.4565017
75	0xbf7bb39c	-0.9832094
76	0x3d7e3a84	0.062067524
77	0xbd910818	-0.07081622
78	0xbd8b9747	-0.06815963
79	0xbdc5dae8	-0.09660894
80	0x3f1cba94	0.61222196
81	0xbdff3e21	-0.12463022
82	0x3e21baa4	0.15793854
83	0xbf81dafe	-1.0144956
84	0xbfd8ea50	-1.6946507
85	0xc0a11997	-5.0343738
86	0x3f70b07a	0.9401928
87	0xbefe6ef2	-0.4969402
88	0x3eb770f0	0.35828352
89	0xbdd5f974	-0.1044797
90	0x3f392605	0.7232364
91	0x3eef073e	0.46685213
92	0xbdb0bdba	-0.086299375
93	0x3ebff1c3	0.37489137
94	0xbd765920	-0.06014359
95	0xbd84fa76	-0.06493084
96	0xbe36a9bd	-0.17838188
97	0x3f2118db	0.6292855
98	0x3fa5d065	1.2954222
99	0xbec0065e	-0.37504858
100	0xbfb824f9	-1.4386283
101	0xbd1bd7e0	-0.03804767
102	0x3d2ac450	0.041691124
103	0xbcb3969e	-0.021922406
104	0xbed295bc	-0.41129863
105	0x3d616430	0.055027187
106	0x3eb26540	0.34842873
107	0xbfc94843	-1.5725178
108	0x3d6774cc	0.05650787
109	0xbb973cc0	-0.0046153963
110	0xbf16396b	-0.5868136
111	0xbf0440b5	-0.51661235
112	0xbd0e4c8d	-0.034740973
113	0xbfd26aac	-1.6438804
114	0x3da6bcc8	0.08141476
115	0x3f581b90	0.8441706
116	0xbf7b7b05	-0.9823459
117	0xbecc7573	-0.39933357
118	0x3fd86da4	1.690846
119	0x3e5fdc2c	0.21861333
120	0xbed9418f	-0.4243283
121	0x3ca0a160	0.0196082
122	0xbfb568b2	-1.4172575
123	0xc012d8c8	-2.2944813
124	0xbdb0c929	-0.08632118
125	0xc00ad2a0	-2.1691055
126	0xbdcae560	-0.09907031
127	0xbfaa7a54	-1.3318582
128	0xbd868bbc	-0.06569621
129	0x3e990ac9	0.2989104
130	0x3db43e5b	0.08800956
131	0x3f466011	0.77490336
132	0x3f3e71ec	0.7439258
133	0x3d1132ac	0.035448715
134	0xbde2e59a	-0.11078949
135	0x3f2913cb	0.66045827
136	0x3cf7e6f8	0.030261502
137	0xbdc6071a	-0.09669323
138	0x3f9ca79b	1.2238649
139	0xbf5d607d	-0.86475354
140	0xbdcbf86c	-0.09959492
141	0xbca41c60	-0.020033062
142	0xbdc06103	-0.093935035
143	0xbd4fa0c4	-0.050690427
144	0x3e7b847b	0.24562256
145	0xbee672db	-0.45009503
146	0x3f46a854	0.776006
147	0x3ef30b17	0.47469398
148	0x3db456f4	0.088056475
149	0xbd54070f	-0.051764544
150	0xbef27f4b	-0.47362742
151	0x3fcafc0c	1.5858169
152	0x3e74b39c	0.2389664
153	0xbdbfc48c	-0.0936366
154	0xbe3e8fc2	-0.18609527
155	0x3e4312e2	0.19050172
156	0x3d62eaa4	0.055399552
157	0x3e0fc5b7	0.14040266
158	0xbea7b9be	-0.32758898
159	0x3bf52360	0.0074810237
160	0x3e9ef7ca	0.31048423
161	0x3f3dd864	0.7415831
162	0xbe4b886b	-0.19876258
163	0x3e234dbd	0.15947624
164	0xbdbf0b2b	-0.09328302
165	0xbddfcd82	-0.109278694
166	0x3d6028b0	0.054726303
167	0xbdabf2b9	-0.08395905
168	0x3f8be6f8	1.0929861
169	0xbc2aaf3d	-0.010417757
170	0x3e1e3c7e	0.15452763
171	0xbdc5fde6	-0.09667568
172	0x3b746240	0.0037290007
173	0xbbb0aa60	-0.005391404
174	0x3ef585b8	0.47953582
175	0xbce7196a	-0.02821036
176	0xbcb27358	-0.021783516
177	0xc0215b05	-2.5211804
178	0xbdbd03ae	-0.092292175
179	0x3de4718f	0.11154472
180	0xbf66ea9b	-0.9020173
181	0x3c6630b9	0.014049702
182	0x3f1d2559	0.61385113
183	0x3eb37663	0.3505126
184	0x3da32d6a	0.079676464
185	0xbc8e1e20	-0.01734835
186	0x3f4ccb4b	0.799977
187	0xc0578e75	-3.36807
188	0x3eeffad8	0.46871066
189	0xbe84b91c	-0.25922477
190	0x3dc0ca2c	0.09413561
191	0xbde37a47	-0.11107307
192	0x3dae5c4c	0.08513698
193	0xbd255c09	-0.040370975
194	0x3e585f67	0.21130143
195	0xbde425ad	-0.111399986
196	0x3f7dd4c4	0.9915278
197	0xbb73c5c0	-0.0037196726
198	0xbca92a20	-0.02064997
199	0x3f479e9a	0.7797638
200	0xbdcaac3c	-0.09896132
201	0x3c3548d0	0.011064723
202	0xbe886d1f	-0.26645753
203	0xbf19b3e1	-0.600401
204	0x3da4388c	0.08018598
205	0xbd15a1bc	-0.036531195
206	0x3d2f4a75	0.042795617
207	0xbdcc9a66	-0.09990387
208	0xbf444744	-0.7667124
209	0x401b0111	2.42194
210	0xbea5d852	-0.32391602
211	0xbe688e32	-0.22710493
212	0xbfb21aae	-1.3914392
213	0xc02de000	-2.7167969
214	0xbe682f3c	-0.22674268
215	0x3e9f9a48	0.31172395
216	0x3eaf77e6	0.34271163
217	0xbc37a37b	-0.01120841
218	0x3f82f863	1.0232052
219	0x3ece38eb	0.402778
220	0xbdddcce6	-0.10830097
221	0x3e2f0fa6	0.17095813
222	0x3e057410	0.13032556
223	0xbc21c500	-0.009873629
224	0xbe643f67	-0.22289811
225	0xbf5a18f8	-0.8519435
226	0xbf800916	-1.0002773
227	0xbfae2466	-1.3604858
228	0xc075b94d	-3.8394349
229	0x3dada722	0.08479144
230	0x3dd4e95c	0.10396072
231	0x3dcbf530	0.09958875
232	0x3eb40ee6	0.35167617
233	0xbd3c176a	-0.045920767
234	0xbe98e912	-0.2986532
235	0xc021a60a	-2.5257592
236	0x3d61b21c	0.0551015
237	0xbd7b5f50	-0.061370194
238	0xbf8f118a	-1.1177227
239	0x3f04764b	0.51743
240	0xbb38006d	-0.0028076426
241	0xbfe0e363	-1.7569393
242	0x3d6fbbfc	0.058528885
243	0xbf91323e	-1.1343458
244	0xbf66bfce	-0.9013642
245	0xbf929dbd	-1.1454388
246	0x3e1853e5	0.14875753
247	0x3eb5c63b	0.355028
248	0xbfa9e710	-1.327364
249	0x3d1c90cc	0.038224027
250	0xbf0ccc29	-0.54999024
251	0xc06932de	-3.6437297
252	0xbe615f0e	-0.22008917
253	0xbffa9d8e	-1.9579332
254	0xbd967360	-0.07346225
255	0xc029f22c	-2.655406

fc2.bias f4 [64]
0	0x3f9984de	1.1993673
1	0x3e90cadd	0.28279772
2	0xbe86edf4	-0.2635342
3	0xbf743973	-0.9540016
4	0xbe539b85	-0.20664795
5	0x3f32ae35	0.6979707
6	0x3f0ac482	0.542061
7	0xbe7a33a9	-0.2443377
8	0xbdd5e296	-0.104436085
9	0xbe457e7f	-0.19286536
10	0xbe368d67	-0.17827378
11	0x3efcaec4	0.49352086
12	0xbf278ac6	-0.65446126
13	0xbf8a2bf7	-1.0794667
14	0xbe7332c8	-0.2374984
15	0xbde7cf60	-0.113188505
16	0x3d9dd8d5	0.07707373
17	0xbddaed88	-0.10689837
18	0x3d59be8b	0.05316023
19	0xbd5a61c4	-0.053315893
20	0x3f04ab2a	0.51823676
21	0xbe28b606	-0.16475686
22	0x3f1cd78f	0.61266416
23	0xbdb5afac	-0.088713974
24	0xbd9fdba7	-0.07805567
25	0x3f9bbd40	1.216713
26	0xbc2a6a96	-0.010401389
27	0xbe1d4641	-0.15358831
28	0xbdf1ab56	-0.11800258
29	0x3ed1b5b8	0.40958953
30	0xbe90c057	-0.28271744
31	0xbe58495a	-0.21121731
32	0x3f00c669	0.5030275
33	0xbd83929f	-0.0642445
34	0xbf143744	-0.5789683
35	0x3ec36986	0.38166445
36	0xbca447d7	-0.020053787
37	0xbf3239ea	-0.6961962
38	0x3c07a019	0.008277916
39	0xbec6e453	-0.38846073
40	0xbf19f044	-0.6013224
41	0xbda76a6e	-0.08174597
42	0x3e6b9ca4	0.23008972
43	0xbf075eaf	-0.5287885
44	0x3c8bb180	0.017052412
45	0xbe6c8cb6	-0.23100552
46	0xbf04e61e	-0.5191363
47	0x3f0ee60c	0.55819774
48	0xbf026503	-0.5093538
49	0xbe8c8dad	-0.2745184
50	0x3e8e4255	0.27784982
51	0xbf9d22f2	-1.227629
52	0xbd314fd6	-0.043289028
53	0xbe73cfe5	-0.23809774
54	0x3edabed1	0.42723706
55	0xbf9a882d	-1.2072808
56	0xbe0c1b75	-0.13682349
57	0xbddecef7	-0.10879319
58	0xbe00f44c	-0.12593192
59	0xbf897778	-1.0739584
60	0x3f844c9d	1.033588
61	0xbf5d832b	-0.8652827
62	0xbe6b3913	-0.22970991
63	0xbd1fece1	-0.039044265

fc3.weight f4 [4, 64]
0	0x3d39334c	0.045214936
1	0xbe3633b4	-0.1779316
2	0x3f7a5a98	0.97794485
3	0x3e43acce	0.19108889
4	0x3cde7b40	0.02715838
5	0xbe54ac3d	-0.20768829
6	0x3ee199ab	0.44062552
7	0x3d54f395	0.05199011
8	0x3e1f121f	0.15534256
9	0xbc80d901	-0.015728476
10	0x3e17ea48	0.14835465
11	0xbefc26db	-0.49248394
12	0x3f4e6015	0.8061536
13	0x3f16bc60	0.5888119
14	0x3cb74964	0.022373863
15	0xbcc60d99	-0.024176406
16	0xbe767f07	-0.24071895
17	0xbd913c7e	-0.07091616
18	0x3ea4aef5	0.32164732
19	0xbd8db937	-0.069200926
20	0x3ddfc576	0.109263346
21	0xbea8155f	-0.32828805
22	0xbf067051	-0.5251513
23	0x3d273589	0.04082254
24	0x3cd357f3	0.025798773
25	0xbe4422a1	-0.19153835
26	0xbe5ba571	-0.2144983
27	0xbc456c0e	-0.012049688
28	0xbef38a57	-0.47566482
29	0x3f064895	0.524545
30	0xbd301ffa	-0.042999245
31	0x3f349d89	0.7055288
32	0xbe74986a	-0.23886266
33	0xbd1ffccc	-0.039059445
34	0x3dbf3214	0.093357235
35	0xbe45822f	-0.19287942
36	0x3cc88f63	0.024482435
37	0xbf486f6b	-0.7829501
38	0xbef0d915	-0.4704062
39	0x3f165f19	0.5873886
40	0x3f99ffb3	1.2031158
41	0x3ccf86d3	0.025332844
42	0x3e6aacd9	0.22917499
43	0x3f0b22c0	0.543499
44	0xbf0435bd	-0.516445
45	0xbee1e7cd	-0.44122162
46	0x3f1cbc12	0.6122447
47	0x3fbef759	1.4919235
48	0xbf7ed4b7	-0.9954333
49	0x3bf61cd9	0.007510763
50	0xbe80e7dc	-0.25176895
51	0x3f1c16f3	0.6097252
52	0x3da57c0e	0.08080302
53	0x3c503178	0.012707107
54	0xbeb75c6d	-0.35812703
55	0x3ed93240	0.4242115
56	0xbf3bcaaf	-0.73356146
57	0x3daf4308	0.08557707
58	0x3d3e8036	0.04650899
59	0x3d290072	0.04126019
60	0x3f4f2677	0.8091807
61	0x3e90a86f	0.28253505
62	0xbda246b6	-0.07923643
63	0xbee3b7d6	-0.44476193
64	0x3ef7fa41	0.48433116
65	0xbf848d34	-1.0355592
66	0x3f49f298	0.78885794
67	0xbf5acd21	-0.8546925
68	0x3cee1985	0.029064903
69	0xbf042e29	-0.51632935
70	0x3d809705	0.06278805
71	0x3cd57846	0.026058327
72	0x3f89f3af	1.0777491
73	0x3c9c1ac6	0.019055735
74	0xbd2af6e4	-0.04173936
75	0xbe10fcef	-0.14158987
76	0x3eb595f0	0.35465956
77	0x3ead03b2	0.33791882
78	0x3cac1515	0.021006146
79	0xbc75334a	-0.014965842
80	0xbf7d96a8	-0.9905801
81	0xbdcea73e	-0.10090493
82	0xbe6d600f	-0.23181175
83	0xbcb05bb6	-0.021528106
84	0x3f777edc	0.9667795
85	0x3e2bbb6e	0.16770718
86	0xbe0c5b5b	-0.13706724
87	0xbcd3fbea	-0.025876958
88	0xbd8cec07	-0.06880956
89	0x3f772af6	0.9654993
90	0x3f36822f	0.71292394
91	0x3cb5c08e	0.022186544
92	0xbf2b75c2	-0.6697656
93	0x3e4e8b04	0.20170218
94	0xbf0e22f0	-0.5552206
95	0x3f283df7	0.6571955
96	0x3f0c2162	0.5473844
97	0xbd822ab2	-0.063558
98	0xbf552b34	-0.8326905
99	0xbde0cfd9	-0.10977144
100	0xbcffc4e3	-0.031221813
101	0xbf8a6cba	-1.0814431
102	0xbde062f9	-0.109563775
103	0x3fad853c	1.3556285
104	0x3ed90260	0.42384624
105	0x3d65e4dd	0.056126464
106	0x3f236686	0.63828313
107	0x3f8130ec	1.0093055
108	0x3e69cd36	0.22832188
109	0xbe3ba479	-0.1832446
110	0x3e922156	0.28541058
111	0x3f1530ff	0.5827789
112	0xbef9ec36	-0.48813027
113	0x3d85a7a5	0.06526116
114	0x3e45df8c	0.19323558
115	0x3ed98489	0.4248393
116	0x3dad7595	0.084696926
117	0x3a40aa34	0.0007349581
118	0xbe90741e	-0.2821359
119	0x3ea56017	0.32299873
120	0x3eefc8fa	0.4683302
121	0x3cdd1995	0.026989738
122	0x3ceb6668	0.028735355
123	0xbf1b01a4	-0.6054938
124	0x3f170d9f	0.5900516
125	0x3eaf7a65	0.34273067
126	0xbc802ae3	-0.01564545
127	0x3e5a5821	0.21322681
128	0x3f6a2b5f	0.9147243
129	0xbf05d849	-0.5228315
130	0x3f30b0d7	0.69019836
131	0xbea6153a	-0.3243807
132	0xbad304fe	-0.001609951
133	0xbf3a5376	-0.727836
134	0x3e84a7ac	0.25909173
135	0x3db9f28e	0.09079467
136	0x3f54ef81	0.83177954
137	0xbc9ea8e1	-0.019367637
138	0x3e08d5da	0.13362828
139	0xbf12ad07	-0.5729527
140	0x3f3f15c3	0.7464258
141	0x3f737406	0.9509891
142	0x3d79ee50	0.061018288
143	0x3c11a3f9	0.008889192
144	0xbf02fdad	-0.5116833
145	0x3d69dd34	0.05709572
146	0xbfe0078e	-1.7502306
147	0x3ccc16a7	0.024913145
148	0xbe173a7e	-0.14768407
149	0x3d9e4e51	0.077297814
150	0xbeeaa8ab	-0.45831808
151	0x3db690b9	0.089143224
152	0x3cb23838	0.021755323
153	0xbe899127	-0.26868555
154	0xbee082fc	-0.43849933
155	0x3dbefb35	0.09325258
156	0x3f67a461	0.904852
157	0xbbc94a07	-0.006142858
158	0xbec1b03b	-0.37829766
159	0x3f869827	1.0515183
160	0xbdb962eb	-0.0905207
161	0x3d38b3ed	0.045093466
162	0xbf36cd63	-0.71407145
163	0x3eb17ee8	0.34667134
164	0x3c2de955	0.010614713
165	0xbf76e5c2	-0.9644433
166	0x3e9893b1	0.2980018
167	0x3ecdd27b	0.40199646
168	0xbd2def57	-0.04246458
169	0x3d5f51e8	0.05452147
170	0x3ed614b1	0.4181266
171	0x3f62ada7	0.8854622
172	0xbf092b25	-0.5358146
173	0xbf1908cb	-0.5977904
174	0x3f35dc3a	0.71039164
175	0x3fcf37b0	1.618887
176	0xbf334dc9	-0.70040566
177	0x3cd67a25	0.02618129
178	0xbea2c85f	-0.31793496
179	0x3f040be4	0.51580644
180	0xbc1e59bd	-0.00966495
181	0xbc3553fa	-0.011067385
182	0xbeb5a203	-0.35475168
183	0x3f0a99d0	0.5414095
184	0x3da08d01	0.07839394
185	0x3aa5f8f5	0.0012662696
186	0x3b8e8e5b	0.004350466
187	0xbefa75cd	-0.48918
188	0x3f3ead53	0.7448322
189	0x3d8b59f7	0.06804269
190	0xbe2e926f	-0.17048047
191	0x3ec35e76	0.38158005
192	0xbe1d6ddc	-0.1537394
193	0xbc8fc38a	-0.017549295
194	0x3f9dad96	1.2318599
195	0x3f1a663c	0.6031225
196	0xbc95be73	-0.01827929
197	0xbea38cb1	-0.31943277
198	0x3f4179f3	0.75576705
199	0x3d682f2c	0.05668561
200	0xbf0b7959	-0.54482037
201	0xbbde9140	-0.0067922175
202	0xbc26f157	-0.010189376
203	0xbe18b241	-0.14911748
204	0x3f62e700	0.8863373
205	0x3eeaeb4e	0.45882648
206	0xbcfc8f06	-0.030829918
207	0x3bee2448	0.0072675087
208	0xbf104c88	-0.5636678
209	0xbd62fd06	-0.055417083
210	0x3f08c943	0.534321
211	0x3da4e715	0.08051888
212	0xbe7bf0f0	-0.24603629
213	0x3e1a8467	0.1508957
214	0xbef58118	-0.47950053
215	0xbdbbfadf	-0.09178709
216	0xbb040e48	-0.0020150114
217	0xbd74d193	-0.059770178
218	0x3d93cc32	0.072166815
219	0x3d909f1b	0.07061597
220	0xbf4a6427	-0.7905907
221	0x3f47dc5e	0.7807063
222	0xbed8c214	-0.4233557
223	0x3f958a98	1.168292
224	0xbcb3f79d	-0.021968657
225	0x3c3964ed	0.0113155665
226	0xbf323fdc	-0.6962869
227	0xbfff1cbc	-1.9930644
228	0xbd948e6f	-0.072537296
229	0xbfb83a7f	-1.4392852
230	0xbe6ad87a	-0.22934142
231	0xbda5d555	-0.080973305
232	0x3e114c3a	0.14189234
233	0xbdd8edcb	-0.105922304
234	0x3f55bca7	0.83490986
235	0x3f7322ad	0.94974786
236	0x3f761104	0.96119714
237	0xbeb6ae43	-0.35679826
238	0x3ea1abca	0.31576377
239	0x3f825f2c	1.0185294
240	0x3cc1f2f1	0.023675414
241	0xbdb5726e	-0.08859716
242	0xbf8a8305	-1.0821234
243	0x3f1bc3b8	0.6084552
244	0xbdbe9217	-0.09305208
245	0x3d1d5022	0.0384065
246	0xbe8fa4d1	-0.28055432
247	0x3dda469d	0.10658
248	0xbee587b4	-0.44830096
249	0xbd78c647	-0.060735967
250	0xb91c75e9	-0.00014921244
251	0xbe1f2209	-0.15540327
252	0x3e94e03f	0.29077336
253	0x3f238ea9	0.6388956
254	0xbd901365	-0.07034949
255	0xbf116586	-0.5679554

fc3.bias f4 [4]
0	0x3fd57415	1.667605
1	0xbe127339	-0.14301766
2	0x3fc9d2c1	1.5767442
3	0x3f269ebe	0.6508597
