DQN/pth/10x10/dqn_agent_100.pth (torch, 22084 bytes, 6 tensors)

fc1.weight f4 [64, 6]
0.91105884 1.7167664 -0.41285762 0.23285463 -0.10423516 -0.13074449 -0.17329979 -0.16055873
-0.3142135 0.17109352 0.14640851 -0.29687935 0.075575195 -0.100293845 -0.01062967 -0.40067017
0.17371638 -0.37226754 -0.010875904 -0.11729431 -0.1454979 -0.15001595 -0.2348197 -0.080298394
0.19795889 -0.3933819 -0.29820925 -0.22650585 -0.098993175 -0.08199986 0.10474642 -1.3169794
-0.13870864 -2.8366368 0.21677205 0.10569269 -1.6721439 -0.70667696 -1.9005048 -1.1684495
0.13007948 -0.03497639 -0.20565099 -0.8689912 -0.93815786 -1.1816024 0.5374369 0.50810057
0.48668873 -3.5378885 -0.4773658 1.8807741 0.27086118 -0.08793152 -0.9820965 -1.5764495
0.6436883 0.332517 0.6597388 0.22061099 1.0130906 -0.69853306 -0.25022656 -0.44718605
-0.45295915 -0.00518764 0.31902546 -0.2912336 -0.2261936 -0.18574964 -0.20326237 -0.09757981
1.0003072 1.2140472 -0.2924114 -0.37172374 0.6805402 -0.07159166 -2.0427206 -0.067623734
-2.885865 -1.3519194 0.9405414 0.21263908 -2.64597 -0.15812583 0.663383 0.98031676
-0.18899935 0.2577255 0.552875 -2.5439763 0.40462586 -0.4565639 -0.12908363 0.4912959
0.1682081 -0.5707161 -0.5336175 -1.2891705 -0.107283056 -0.09709132 -0.37266764 -0.04437854
-0.16194755 0.19547676 -0.07921443 -0.20969528 0.69824153 1.0842175 0.31306994 0.48013896
-0.08220947 -0.6816468 -0.23480125 0.37579492 -0.00026212042 -0.31971186 -0.33424056 -0.16847208
0.18944573 0.54691714 0.7405403 0.52753437 -0.4161606 -0.10704425 0.52363485 -1.4057915
-0.064967066 -0.16610809 0.07493934 -0.14161533 -0.35920346 -0.39079306 -0.42519513 -0.82972354
-0.044464502 0.08718711 -0.1483878 0.23261109 0.02520212 0.34252754 -0.37871936 -0.25389773
-0.92425406 -0.0041212277 -0.8199536 -0.17370486 -0.13013789 0.10746105 0.22719058 0.14166062
-0.017292509 -0.08630967 -0.4309621 0.001980345 0.1230652 -0.0058303326 0.08162221 -0.28367755
-0.03288716 -0.20201121 -0.84827566 1.731138 1.1475887 0.74721706 -0.35520253 0.2184913
-0.68265283 0.18645927 0.4030862 -1.3073854 0.25892708 0.23885846 -1.4552171 -0.55417
-2.2534478 -1.3178974 0.34587237 -0.25665522 -1.3577081 0.553096 0.2296777 0.37372905
0.5569807 0.26808527 0.2437338 -2.5193195 0.4192177 -0.54858226 0.1578761 0.49571925
-1.6115222 -0.7443653 -0.0030086231 -0.4004115 0.16085021 0.4620503 0.18248068 -0.22840685
-0.21005806 0.15257326 -0.3978743 -0.098049045 0.118669346 -0.02426283 -0.07294802 0.11775392
-0.32454786 -0.33551222 -0.6576061 2.1754382 1.0736893 -0.38640562 0.19108613 -0.32523966
-1.330242 0.6052282 1.1843443 -1.0736047 0.100147404 -0.09893284 -1.2723858 -1.8328344
0.71799636 -1.3107412 0.09425943 0.19916539 0.40471917 -0.37899023 0.07792909 -0.33370915
-0.23567677 -0.356164 0.06492923 0.17929852 -0.12481331 -0.27057067 -0.41684377 0.140344
-1.6332039 -0.65532327 -1.9324843 -1.1200722 0.1309935 -0.010357126 1.0754437 0.8344384
-0.29198432 -0.36750174 -0.36200467 -0.016808907 0.006271618 0.21551184 -0.34926528 0.17117548
00000000: 273b 693f 00bf db3f 1362 d3be 7271 6e3e
00000010: 3e79 d5bd e2e1 05be 8075 31be 8269 24be
00000020: 98e0 a0be 2433 2f3e 1dec 153e 9200 98be
00000030: 2bc7 9a3d dc66 cdbd 1128 2ebc a424 cdbe
00000040: b5e2 313e da99 bebe d930 32bc 0038 f0bd
00000050: 67fd 14be c89d 19be 9374 70be 7c73 a4bd
00000060: bcb5 4a3e 5a69 c9be e2ae 98be 26f1 67be
00000070: efbc cabd 8bef a7bd 4b85 d63d c892 a8bf
00000080: a309 0ebe 758b 35c0 7ef9 5d3e 6975 d83d
00000090: d008 d6bf c8e8 34bf be43 f3bf c18f 95bf
000000a0: 8e33 053e 6743 0fbd 2c96 52be 3576 5ebf
000000b0: 1d2b 70bf bf3e 97bf 7795 093f e112 023f
000000c0: 442f f93e c46c 62c0 4a69 f4be 35bd f03f
000000d0: 51ae 8a3e 7115 b4bd ad6a 7bbf 19c9 c9bf
000000e0: c2c8 243f ab3f aa3e a4e4 283f d9e7 613e
000000f0: f4ac 813f 10d3 32bf b21d 80be 92f5 e4be
00000100: 43ea e7be 14fd a9bb 4e57 a33e 921c 95be
00000110: 4c9f 67be 2735 3ebe 0324 50be ecd7 c7bd
00000120: 110a 803f e665 9b3f f2b6 95be 9352 bebe
00000130: e237 2e3f a69e 92bd efbb 02c0 507e 8abd
00000140: 03b2 38c0 b20b adbf 52c7 703f 0fbe 593e
00000150: 9357 29c0 bdeb 21be 78d3 293f 0af6 7a3f
00000160: 0c89 41be 99f4 833e 3789 0d3f 82d0 22c0
00000170: 1f2b cf3e bec2 e9be 802e 04be 238b fb3e
00000180: bf3e 2c3e 731a 12bf 289b 08bf 8a03 a5bf
00000190: 38b7 dbbd d0d7 c6bd 4bce bebe 46c6 35bd
000001a0: 94d5 25be 0f2b 483e 2d3b a2bd 5cba 56be
000001b0: f5bf 323f a4c7 8a3f b44a a03e c6d4 f53e
000001c0: 705d a8bd 6880 2ebf bd6f 70be 3168 c03e
000001d0: 356d 89b9 46b1 a3be 9421 abbe f283 2cbe
000001e0: 10fe 413e c302 0c3f 0d94 3d3f 7e0c 073f
000001f0: 0113 d5be 043a dbbd ef0c 063f faf0 b3bf
00000200: 740d 85bd 3d18 2abe cc79 993d 9c03 11be
00000210: 84e9 b7be 0716 c8be 2db3 d9be c368 54bf
00000220: 6920 36bd 288f b23d f9f2 17be 9a31 6e3e
00000230: ad74 ce3c c55f af3e 81e7 c1be e2fe 81be
00000240: ea9b 6cbf 5d0b 87bb 7be8 51bf b0df 31be
00000250: de42 05be 8a14 dc3d a6a4 683e 7b0f 113e
00000260: 05a9 8dbc 20c3 b0bd 10a7 dcbe adc8 013b
00000270: 9c09 fc3d 600c bfbb 8c29 a73d 2f3e 91be
00000280: b0b4 06bd 07dc 4ebe 9828 59bf ee95 dd3f
00000290: 30e4 923f 9e49 3f3f 1bdd b5be 2fbc 5f3e
000002a0: 56c2 2ebf 2eef 3e3e 5061 ce3e 6858 a7bf
000002b0: 1792 843e 5097 743e 8e44 babf 16de 0dbf
000002c0: 7d38 10c0 ddb0 a8bf 2f16 b13e 5068 83be
000002d0: 61c9 adbf b397 0d3f a230 6b3e 6a59 bf3e
000002e0: 4a96 0e3f 7942 893e 5a95 793e 883c 21c0
000002f0: b4a3 d63e e36f 0cbf 46aa 213e eace fd3e
00000300: 5c46 cebf b98e 3ebf 522c 45bb bc02 cdbe
00000310: ebb5 243e db91 ec3e 37dc 3a3e 7ce3 69be
00000320: 7619 57be 2a3c 1c3e 2eb6 cbbe f0cd c8bd
00000330: ea08 f33d d8c2 c6bc c665 95bd f828 f13d
00000340: 232b a6be 42c8 abbe e058 28bf 613a 0b40
00000350: a76e 893f f5d6 c5be 15ac 433e d085 a6be
00000360: 5f45 aabf 3cf0 1a3f 9898 973f e16b 89bf
00000370: 151a cd3d 4d9d cabd 8add a2bf 519a eabf
00000380: 9cce 373f 5ec6 a7bf 170b c13d 03f2 4b3e
00000390: 5a37 cf3e 020b c2be 4999 9f3d eddb aabe
000003a0: 4055 71be 215b b6be 9ef9 843d 089a 373e
000003b0: 1f9e ffbd 3d88 8abe 8c6c d5be 56b6 0f3e
000003c0: d30c d1bf 44c3 27bf a55b f7bf 875e 8fbf
000003d0: 2923 063e efb0 29bc 24a8 893f c19d 553f
000003e0: f87e 95be 3029 bcbe ad58 b9be d5b2 89bc
000003f0: 2582 cd3b 23af 5c3e e6d2 b2be a048 2f3e

fc1.bias f4 [64]
0.17180413 -0.3039401 0.17096685 -0.29004046 -0.21838097 -0.024935037 0.30669132 0.2508232
-0.13178512 0.76247567 -0.0028047338 -0.33971775 0.066564344 0.8829411 -0.14399207 0.25210455
-0.097599916 0.31570116 0.087846346 -0.3473381 -0.6662727 -0.073814064 -0.50751215 -0.09119865
-0.034067154 -0.30751514 -0.09167506 -0.05323203 -0.1908996 0.33644474 0.07654465 0.18733588
0.50772744 -0.37034053 0.32087168 0.41099012 0.5899027 -0.068858124 0.40041155 0.05816325
-0.119970076 -0.5683623 -0.13002549 0.099251375 0.37343282 0.9220666 -0.34006113 -0.037446186
0.21540837 -0.28508174 0.026042826 -0.04850198 0.19371107 -0.03155749 0.26207983 0.15019754
-0.4773651 -0.24975763 -0.081567146 -0.00045060707 -0.17898925 -0.35686427 -0.07505499 -0.111161396
00000000: 6ced 2f3e 099e 9bbe ef11 2f3e 2f80 94be
00000010: 439f 5fbe 9044 ccbc a506 9d3e e66b 803e
00000020: aef2 06be 9b31 433f a0cf 37bb 7cef adbe
00000030: e352 883d 6e08 623f a872 13be d913 813e
00000040: 77e2 c7bd 95a3 a13e c9e8 b33d 4dd6 b1be
00000050: d990 2abf d42b 97bd 51ec 01bf 5cc6 babd
00000060: 008a 0bbd a072 9dbe 22c0 bbbd d409 5abd
00000070: 2f7b 43be 7c42 ac3e 71c3 9c3d fad4 3f3e
00000080: 6dfa 013f 469d bdbe 4b49 a43e 4c6d d23e
00000090: dd03 173f 7d05 8dbd be02 cd3e 973c 6e3d
000000a0: dfb2 f5bd 3180 11bf 6725 05be 4e44 cb3d
000000b0: 9632 bf3e 8f0c 6c3f 7e1c aebe 2c61 19bd
000000c0: 0394 5c3e 3cf6 91be c457 d53c 03aa 46bd
000000d0: 325c 463e 6d42 01bd 542f 863e 62cd 193e
000000e0: 3369 f4be 77c0 7fbe ad0c a7bd 753f ecb9
000000f0: f548 37be eab6 b6be 6eb6 99bd 96a8 e3bd

fc2.weight f4 [64, 64]
-0.8199803 0.0056138933 0.03887402 0.041509226 -0.049731568 0.3476452 -0.9344496 0.042045474
-1.1593727 -0.07281858 -0.060496442 0.076776445 -0.6157484 -0.6613745 -0.8884958 -0.117553994
0.46266785 0.11631254 0.03829738 -0.007851392 -0.26826534 0.73175156 0.28234908 -0.021813735
-0.029421715 0.109764755 0.11046426 -0.6800349 0.24480577 -1.110314 0.3390974 -0.36849108
-0.11741173 -0.051814526 -0.033058345 -0.18581249 -0.18910506 -0.38745934 0.015696093 -0.040666237
-1.1074606 -0.06272441 0.007940903 -0.71328676 0.1178287 0.19328249 0.044121258 0.06619839
-0.098550364 -1.1174549 -0.040236667 -0.10715014 0.090320826 0.6147592 0.0038426432 -0.1378945
-0.073437035 0.087825075 -0.65412074 0.1917416 0.020513408 -0.0045847907 0.0148008885 0.017328154
-0.99549806 -0.061888874 -0.112351894 -0.035557315 0.07916036 0.070321 1.6378933 -0.06042119
0.2781326 -0.20125191 -0.98741245 -0.11048147 -0.16764064 0.7897242 -0.24911964 -0.2908118
0.08597641 -0.009870008 -0.9147443 0.10023698 -0.9715101 -0.4876769 0.11105156 -0.011408597
0.2685375 0.04706493 -0.04285908 -1.9542598 -0.032688323 1.5340707 0.28627682 -0.4834983
0.25476637 0.10320535 -0.07912351 -1.2800332 -0.15415877 0.4186755 0.029584259 -0.10024117
1.6008961 0.18700473 -0.014846593 -0.8173689 0.0013738871 -0.18094523 0.03170362 0.07626861
0.043462515 1.5470272 -0.053362235 0.105892405 0.122060336 0.12598588 0.027902389 -0.02841243
0.12298547 -0.101089284 1.2779839 0.11021749 -0.08985435 -0.049780354 -0.06736087 -0.071374536
-0.48941132 -0.03095676 -0.027719636 0.061159402 -0.047213774 0.30702344 0.7769857 -0.08970792
-0.30212352 -0.011775917 -0.6704385 0.06543289 -0.2132957 0.46848238 -0.9546261 0.6270901
0.22899173 0.19035496 0.2926086 -0.09210119 0.7197498 0.34395978 -0.021861322 -0.096734464
-0.14964333 -0.08866502 -0.14396954 -0.76175475 0.31845215 0.7809894 -0.069926076 0.5230073
-0.33166075 0.063619494 -0.09174588 -0.17150845 -0.16414608 -0.23289473 -0.055633023 -0.03221655
0.72238225 -0.19152963 -0.119271725 0.42560428 -0.11010301 0.06323161 0.013271257 -0.015555705
0.07770097 0.9037262 -0.06845048 -0.035631217 0.009550322 -0.2223916 -0.30935967 -0.090083815
-0.0812679 -0.02569656 0.8484174 0.2958884 0.022480566 0.0113272965 -0.18248117 0.023953486
0.17139354 0.09629755 0.102181666 0.07669279 -0.08248673 0.42689627 -0.12958978 0.8723542
-0.20891492 0.029673481 -0.25858352 -0.061049532 -0.110094175 0.083661206 -1.2074748 0.51716584
0.3341882 0.025437567 -0.10692258 0.10509339 -0.41125524 0.1095476 -0.008513631 -0.10079917
-0.8289791 -0.03715183 -0.053439 -2.2356985 0.23747803 -0.33941993 0.119325735 0.46348014
-0.19163775 0.040189385 -0.041647002 -2.047596 -0.89245105 -1.323469 -0.004298508 0.080325484
-0.17864092 0.2246298 -0.08468546 -0.00985137 0.05942282 -0.46148536 0.0062114894 0.42053187
-0.041940898 0.07439838 -0.10694483 0.012928361 -0.07716348 -0.6209723 -0.12145957 -0.10026547
0.5520243 0.02109629 -0.24990332 0.29336336 0.065681 0.057706535 0.56876034 -0.02641171
00000000: 3bea 51bf c0f4 b73b 5d3a 1f3d 9405 2a3d
00000010: 54b3 4bbd 8dfe b13e 1738 6fbf e037 2c3d
00000020: 5366 94bf e821 95bd 1ecb 77bd f83c 9d3d
00000030: b0a1 1dbf d74f 29bf 7674 63bf 26c0 f0bd
00000040: cde2 ec3e 4535 ee3d b7dd 1c3d 20a3 00bc
00000050: 135a 89be 1254 3b3f 0f90 903e b8b2 b2bc
00000060: cf05 f1bc 58cc e03d 163b e23d c416 2ebf
00000070: 5dae 7a3e c51e 8ebf 2d9e ad3e ddaa bcbe
00000080: 9075 f0bd 783b 54bd 3068 07bd a145 3ebe
00000090: c2a4 41be 1261 c6be 1895 803c a491 26bd
000000a0: 45c1 8dbf a875 80bd 901a 023c f699 36bf
000000b0: 2c50 f13d d8eb 453e 7eb8 343d 0693 873d
000000c0: c6d4 c9bd c308 8fbf 34cf 24bd 8871 dbbd
000000d0: 20fa b83d dc60 1d3f dbd4 7b3b 3734 0dbe
000000e0: 2866 96bd a2dd b33d 7574 27bf e957 443e
000000f0: bc0b a83c 033c 96bb 6d7f 723c c6f3 8d3c
00000100: f6d8 7ebf 307f 7dbd c018 e6bd 8ca4 11bd
00000110: d41e a23d 7504 903d 7da6 d13f 367c 77bd
00000120: 6567 8e3e fb14 4ebe 10c7 7cbf 1c44 e2bd
00000130: fda9 2bbe 5d2b 4a3f 3819 7fbe 49e5 94be
00000140: 6614 b03d d0b5 21bc af2c 6abf 0c49 cd3d
00000150: e3b4 78bf c9b0 f9be 006f e33d 20eb 3abc
00000160: bf7d 893e 28c7 403d 018d 2fbd 2f25 fabf
00000170: 31e4 05bd 6e5c c43f e092 923e 178d f7be
00000180: bd70 823e 545d d33d 820b a2bd 21d8 a3bf
00000190: ccdb 1dbe a35c d63e b05a f23c 3e4b cdbd
000001a0: 2aea cc3f 2b7e 3f3e 203f 73bc 173f 51bf
000001b0: 0014 b43a b549 39be a8db 013d b832 9c3d
000001c0: c005 323d fd04 c63f 5c92 5abd 1ede d83d
000001d0: c5fa f93d 7102 013e 8d93 e43c 2fc1 e8bc
000001e0: cedf fb3d e607 cfbd fa94 a33f b5b9 e13d
000001f0: 8f05 b8bd 7ce6 4bbd 7ff4 89bd d02c 92bd
00000200: 1f94 fabe 0899 fdbc 4a14 e3bc 4882 7a3d
00000210: 3b63 41bd 2d32 9d3e 89e8 463f c9b8 b7bd
00000220: efaf 9abe c7ef 40bc dca1 2bbf ae01 863d
00000230: 306a 5abe ecdc ef3e 6062 74bf fa88 203f
00000240: cf7c 6a3e 69ec 423e cbd0 953e 8c9f bcbd
00000250: 8641 383f 7f1b b03e 8416 b3bc b81c c6bd
00000260: 1a3c 19be 0296 b5bd c06c 13be 5c02 43bf
00000270: 290c a33e ecee 473f 6735 8fbd cee3 053f
00000280: 70cf a9be f04a 823d 44e5 bbbd e99f 2fbe
00000290: e915 28be f57b 6ebe 74df 63bd 80f5 03bd
000002a0: 0bee 383f 5820 44be bc44 f4bd cee8 d93e
000002b0: b07d e1bd 937f 813d b06f 593c 5bdd 7ebc
000002c0: b021 9f3d 9a5a 673f c42f 8cbd 0af2 11bd
000002d0: f478 1c3c a0ba 63be 6464 9ebe dd7d b8bd
000002e0: c96f a6bd 9881 d2bc e231 593f af7e 973e
000002f0: 2a29 b83c 2096 393c 58dc 3abe 1a3a c43c
00000300: ca81 2f3e a637 c53d 9f44 d13d 1c11 9d3d
00000310: cdee a8bd 2692 da3e 2fb3 04be 9b52 5f3f
00000320: cbed 55be cd15 f33c 0f65 84be 130f 7abd
00000330: 0e79 e1bd 9156 ab3d 898e 9abf fb64 043f
00000340: b71a ab3e 7262 d03c 3afa dabd 343b d73d
00000350: 0c90 d2be 7e5a e03d c27c 0bbc cc6f cebd
00000360: f937 54bf 842c 18bd dae2 5abd af15 0fc0
00000370: 712d 733e 73c8 adbe 0d61 f43d 454d ed3e
00000380: b03c 44be a09d 243d 0c96 2abd d00b 03c0
00000390: ac77 64bf 6f67 a9bf 80da 8cbb b081 a43d
000003a0: a5ed 36be 5b05 663e 926f adbd a467 21bc
000003b0: 5865 733d cf47 ecbe c089 cb3b f44f d73e
000003c0: 38ca 2bbd 2e5e 983d e405 dbbd 7ad1 533c
000003d0: e307 9ebd 0af8 1ebf ccbf f8bd fc57 cdbd
000003e0: 7751 0d3f 20d2 ac3c a8e6 7fbe b933 963e
000003f0: c383 863d b05d 6c3d 479a 113f 5f5d d8bc

fc2.bias f4 [64]
-0.15529637 -0.0772854 0.018761942 0.20881134 -0.10335122 1.2731785 -0.11744523 -0.09013894
0.3562033 -0.1964195 0.09142376 0.02917665 0.16115591 0.023450907 -0.13021897 -0.09441547
0.1578868 0.2188566 -0.16485643 -0.15853943 0.073770896 -0.12971345 0.08057338 -0.18640147
0.107341155 0.3213269 0.03305326 -0.01554345 -0.19412106 -0.08184833 -0.11408839 0.20310092
0.2867896 0.16713002 -0.070332974 0.038627464 -0.033328984 0.09838772 0.8963297 -0.14366165
-0.06395657 0.2186539 -0.10309675 0.3210565 0.002046473 -0.19399303 0.056008045 0.0032702035
-0.29107982 -0.08872586 -0.3668542 -0.09917598 -0.049029008 -0.3483339 0.31807205 0.32629934
-0.12453057 -0.13054314 -0.1654639 -0.009708267 -0.03275469 -0.084387936 0.07753391 0.08751223
00000000: 0306 1fbe cf47 9ebd a5b2 993c a4d2 553e
00000010: cea9 d3bd 83f7 a23f 2087 f0bd c49a b8bd
00000020: 4760 b63e 3222 49be 613c bb3d df03 ef3c
00000030: 0e06 253e 1e1c c03c 1f58 05be e65c c1bd
00000040: 14ad 213e f21b 603e 20d0 28be 2958 22be
00000050: 3215 973d 9ad3 04be a803 a53d 07e0 3ebe
00000060: aed5 db3d f684 a43e db62 073d f4a9 7ebc
00000070: acc7 46be 19a0 a7bd 2ca7 e9bd b0f9 4f3e
00000080: 16d6 923e 2224 2b3e bc0a 90bd d537 1e3d
00000090: f983 08bd 807f c93d dd75 653f 0a1c 13be
000000a0: aafb 82bd cfe6 5f3e 6424 d3bd 8461 a43e
000000b0: 1f1e 063b 1ca6 46be b168 653d e950 563b
000000c0: 6a08 95be e7b5 b5bd 50d4 bbbe c71c cbbd
000000d0: a4d2 48bd d258 b2be 57da a23e b510 a73e
000000e0: e209 ffbd 1aad 05be 5e6f 29be 6c0f 1fbc
000000f0: c829 06bd 95d3 acbd 19ca 9e3d 9d39 b33d

fc3.weight f4 [4, 64]
0.19962701 -0.073007636 -0.5382706 -0.73068106 0.11896689 -0.9622251 0.03310831 0.1442174
0.6736705 -0.10018855 0.06847237 -0.063101575 0.15569277 0.041858688 0.02890523 -0.69330394
-0.79905945 -0.55070716 0.058446616 0.06547206 0.31357083 0.008420004 0.72956103 0.049228083
0.05597715 0.7073253 -0.03702195 0.071123496 0.73393756 -0.47657117 0.74792206 0.88176
0.696843 0.22516361 -0.08711618 0.50737894 0.9994463 0.09163043 -0.26500806 0.1907529
-0.050637316 -0.07216252 -0.014690275 0.6263363 0.007147283 0.020277847 0.35355824 0.02391197
0.40839258 0.003508971 -0.9185345 0.2107171 0.5861175 0.0046354327 -0.5011609 -0.26369837
0.07168981 0.17985491 -0.6360656 0.30720985 -0.0048424182 -0.82757944 0.43141708 -0.23846816
0.7678246 -0.3882756 -0.031481557 0.76268387 0.053771377 0.021925569 -0.0048882067 0.019306231
0.28329286 -0.026372759 0.034821864 -0.0036264062 0.745425 0.108421326 0.04303128 0.5806593
0.71078724 -0.4459145 -0.07635006 0.006220162 0.24601457 -0.0037276892 0.5347982 0.010398247
0.018646419 0.65798634 -0.037928835 0.05696434 0.8429959 1.4454395 -0.33174282 0.5809888
0.8974481 0.595479 -0.01766564 0.7767453 0.026638892 0.042247415 -0.54552203 -0.26835918
0.020230368 0.41474864 0.010102209 0.08549552 0.049696855 -0.114746794 0.24275543 0.046970673
0.33520722 0.031345457 0.36892942 -0.24306424 0.7397679 -0.32844967 -0.2903299 -0.5300987
0.04584586 0.1322554 0.6900667 0.4096059 -0.012737773 -1.0202184 0.2838859 1.0002996
0.72010636 -0.76821876 -0.4447387 0.73837245 0.0049641593 -0.78638124 0.033941593 -0.30154023
-0.100767314 -0.026739357 -0.07393044 0.11219062 -0.70130813 -0.008309763 -0.051834047 -0.52905536
0.5820799 -0.41624966 0.023824533 -0.04930715 0.31566215 0.029128743 0.7367379 -0.013605
0.046332777 1.3289509 -0.07554284 0.006902407 1.105895 0.35034287 -0.10088818 1.1826879
0.6247652 0.75189525 -0.011409238 0.3204761 -0.57569605 -0.073796764 -0.3369782 -0.7924102
0.040933408 -0.27258638 -0.072114184 -0.11864494 -0.05116296 0.054420248 0.45723495 -0.021429025
-0.2693802 0.015286547 0.21427245 0.018723316 0.76895094 -0.21395366 -0.2983588 -0.77746737
0.027214978 0.041058365 0.87241054 -0.12835251 0.008115692 -0.81153995 0.68890184 0.92505705
0.3731607 0.30814996 -0.06328808 0.27336198 0.08501765 -0.4923323 -0.0038285137 0.4515736
0.17074291 0.09618735 -0.017252684 0.047692075 -0.47355685 0.00033043508 0.14477853 0.045203
0.55929464 -0.30622175 -0.063076206 0.093536094 0.38227075 0.07785004 0.94865173 -0.09929645
0.05643651 0.28792617 0.028173387 -0.01183074 0.9018715 0.16948256 -0.8372393 1.2293867
0.74693096 0.34177577 -0.06418978 0.2981169 0.23750943 -0.016651228 -0.34343073 0.26562956
-0.07364628 0.5075408 0.121753186 -0.11068191 0.015990848 -0.094936155 0.75548285 -0.020595953
0.22392699 -0.02721896 0.22565712 0.033298664 0.5845994 -0.3837041 -0.4757512 0.18405938
-0.11313048 -0.032052785 0.41252157 -0.011060923 0.013356883 -0.96821165 0.26141798 0.22328418
00000000: 066b 4c3e 0785 95bd 1acc 09bf ea0d 3bbf
00000010: eaa4 f33d 6254 76bf 949c 073d baad 133e
00000020: ab75 2c3f a82f cdbd 3e3b 8c3d 663b 81bd
00000030: ed6d 1f3e 0474 2b3d a9ca ec3c 5e7c 31bf
00000040: 298f 4cbf 25fb 0cbf b865 6f3d 3716 863d
00000050: 5b8c a03e 0ef4 093c 83c4 3a3f 63a3 493d
00000060: 4c48 653d 4513 353f 54a4 17bd 32a9 913d
00000070: 55e3 3b3f 2301 f4be d277 3f3f 06bb 613f
00000080: 4e64 323f 4a91 663e f869 b2bd 96e3 013f
00000090: b6db 7f3f bca8 bb3d 23af 87be ba54 433e
000000a0: 1369 4fbd f1c9 93bd 7baf 70bc 9357 203f
000000b0: c133 ea3b ba1d a63c 9605 b53e 09e3 c33c
000000c0: d518 d13e c4f6 653b 1425 6bbf 39c6 573e
000000d0: cc0b 163f d4e4 973b 154c 00bf 7903 87be
000000e0: 1bd2 923d e32b 383e 32d5 22bf 9c4a 9d3e
000000f0: 26ad 9ebb 3fdc 53bf b3e2 dc3e ff30 74be
00000100: 2790 443f 0fcc c6be cef2 00bd 403f 433f
00000110: 603f 5c3d 409d b33c 402d a0bb 1a28 9e3c
00000120: c30b 913e af0b d8bc 5fa1 0e3d 00a9 6dbb
00000130: 2cd4 3e3f 000c de3d 9141 303d 16a6 143f
00000140: 27f6 353f e84e e4be 6c5d 9cbd 80d2 cb3b
00000150: 3eeb 7b3e 3f4c 74bb 89e8 083f 695d 2a3c
00000160: 60c0 983c cb71 283f 445b 1bbd 7153 693d
00000170: 94ce 573f 2904 b93f 32da a9be afbb 143f
00000180: 29bf 653f 5071 183f 88b7 90bc c8d8 463f
00000190: ce39 da3c a00b 2d3d 55a7 0bbf 6066 89be
000001a0: 28ba a53c ef59 d43e bc83 253c 4618 af3d
000001b0: ee8e 4b3d 5e00 ebbd e194 783e 5264 403d
000001c0: 48a0 ab3e 1864 003d 51e4 bc3e d5e5 78be
000001d0: 6e61 3d3f 8e2a a8be 1fa6 94be 8cb4 07bf
000001e0: dec8 3b3d f66d 073e 36a8 303f ddb7 d13e
000001f0: 18b2 50bc 8496 82bf 7e59 913e d109 803f
00000200: e458 383f fca9 44bf cab4 e3be fa05 3d3f
00000210: 63aa a23b 4850 49bf 5706 0b3d 7b63 9abe
00000220: 185f cebd 7f0c dbbc d868 97bd 32c4 e53d
00000230: ee88 33bf ac25 08bc f04f 54bd 2c70 07bf
00000240: 3003 153f ad1e d5be ab2b c33c 4bf6 49bd
00000250: 789e a13e 679f ee3c db9a 3c3f 82e7 5ebc
00000260: 70c7 3d3d 101b aa3f 34b6 9abd 962d e23b
00000270: f88d 8d3f 2460 b33e 769e cebd 5162 973f
00000280: 9df0 1f3f 357c 403f d0ed 3abc 7215 a43e
00000290: d160 13bf c222 97bd 6888 acbe 65db 4abf
000002a0: caa9 273d 7190 8bbe 9ab0 93bd 1efc f2bd
000002b0: 4090 51bd c4e7 5e3d b31a ea3e ec8b afbc
000002c0: 34ec 89be 6d74 7a3c 3d6a 5b3e a461 993c
000002d0: f8d9 443f ab16 5bbe 7cc2 98be 1a08 47bf
000002e0: f2f1 de3c d12c 283d 4c56 5f3f d76e 03be
000002f0: aef7 043c 15c1 4fbf df5b 303f 8ad0 6c3f
00000300: eb0e bf3e d5c5 9d3e 2e9d 81bd 1af6 8b3e
00000310: bc1d ae3d fb12 fcbe cde7 7abb a834 e73e
00000320: 3bd7 2e3e e0fd c43d 8055 8dbc c458 433d
00000330: 0b76 f2be 3f3e ad39 d340 143e c826 393d
00000340: ef2d 0f3f 19c9 9cbe 192e 81bd da8f bf3d
00000350: feb8 c33e d76f 9f3d d7da 723f f05b cbbd
00000360: f829 673d 0f6b 933e e0cb e63c b8d5 41bc
00000370: 0de1 663f d68c 2d3e 5155 56bf 8b5c 9d3f
00000380: de36 3f3f 3cfd ae3e ee75 83bd c7a2 983e
00000390: ac35 733e 2868 88bc 27d6 afbe 9900 883e
000003a0: dcd3 96bd 32ee 013f bc59 f93d 32ad e2bd
000003b0: 3dff 823c e36d c2bd 5367 413f d8b8 a8bc
000003c0: 1e4d 653e 4cfa debc a912 673e 2e64 083d
000003d0: 4ea8 153f dd74 c4be a995 f3be 107a 3c3e
000003e0: f4b0 e7bd c849 03bd 0736 d33e e038 35bc
000003f0: d4d6 5a3c b8dc 77bf 94d8 853e 9ca4 643e

fc3.bias f4 [4]
-0.32238877 -0.7751779 -0.38462716 0.38621086
00000000: 2410 a5be 0f72 46bf daed c4be 6ebd c53e
