DQN/pth/10x10/dqn_agent_1000.pth (torch, 22094 bytes, 6 tensors)

fc1.weight f4 [64, 6]
0	0x3ec0a364	0.37624657
1	0xbfea0947	-1.8284081
2	0x3ee0d247	0.4391043
3	0xbf9bc7bb	-1.2170328
4	0xbf340de9	-0.70333725
5	0xbd91c63f	-0.071178906
6	0xbed65cc7	-0.41867658
7	0xbe5fc85b	-0.21853773
8	0x3e031b49	0.12803377
9	0xbe814041	-0.25244334
10	0x3e33543f	0.17512606
11	0xbeacec87	-0.33774206
12	0xc036b38b	-2.8547084
13	0xbecca3e6	-0.39968795
14	0xbedf9b98	-0.43673396
15	0xbe95695d	-0.29181948
16	0x3ec7ef47	0.39049742
17	0x3ec4e2e7	0.38454363
18	0x3eee87b9	0.46587923
19	0x3f5ab0ce	0.8542603
20	0xbf043c01	-0.5165406
21	0x3f564981	0.8370591
22	0xbebf2fac	-0.37341058
23	0xbece727c	-0.4032172
24	0xbfec3c9d	-1.8455998
25	0xbf91f4cc	-1.1402831
26	0xbf563193	-0.83669394
27	0x3fed45fd	1.8536984
28	0xbdcff230	-0.101536155
29	0x3e2a5f37	0.16637884
30	0xbd537c04	-0.051631942
31	0xbc8f5322	-0.017495696
32	0x3cbd5af3	0.023114657
33	0xbc4d5b02	-0.012533905
34	0xbea55636	-0.32292336
35	0x3e3312ac	0.17487592
36	0x3e4b0855	0.19827397
37	0xbec04669	-0.3755372
38	0xbb34fc1a	-0.0027616085
39	0xbea78922	-0.32721812
40	0xbeed7ab2	-0.46382672
41	0x3e370f8d	0.17877026
42	0xbed6f74b	-0.41985545
43	0xbe73161d	-0.23738904
44	0xbe51a74e	-0.20473978
45	0xbeb03e40	-0.34422493
46	0xbe4b4e0a	-0.19853988
47	0x3e3d966d	0.18514414
48	0xbd88b156	-0.06674449
49	0x3e384fb2	0.17999151
50	0xbe97ade0	-0.29624844
51	0xbeabd182	-0.3355828
52	0xbe157863	-0.14596705
53	0xbe6b9199	-0.2300476
54	0xbea8515a	-0.32874566
55	0xbfb166b3	-1.3859466
56	0xbf34ec5c	-0.70673156
57	0x402d4c84	2.7077951
58	0x3e49f5ef	0.19722722
59	0xbe1f076f	-0.1553018
60	0x3d8e54fa	0.06949802
61	0x3d347db2	0.044065185
62	0xbe705a31	-0.23471905
63	0x3ea7bd27	0.327615
64	0xbec5f5a1	-0.38663962
65	0xbea54acf	-0.32283637
66	0xbec50882	-0.38483053
67	0xbd95b139	-0.07309193
68	0xbd0145d5	-0.031560738
69	0xbebeab02	-0.37239844
70	0xbdce6d9a	-0.100794986
71	0xbdd6b914	-0.104845196
72	0xbf646d8c	-0.89229655
73	0x3ec4cd3d	0.38437834
74	0xc05008ae	-3.2505298
75	0xbe9225a7	-0.2854435
76	0x3ccc5b10	0.024945766
77	0xbecd4999	-0.40095213
78	0xbd9b475e	-0.075819716
79	0xbde3ff8a	-0.111327246
80	0xbdb0e553	-0.0863749
81	0x3e9a0615	0.30082765
82	0xbe08f46a	-0.13374487
83	0xbe16b758	-0.14718378
84	0xbf8dd9db	-1.1082109
85	0x3f1e282b	0.6178004
86	0xc08e5838	-4.448269
87	0xbe99b378	-0.30019736
88	0xbecda9b3	-0.40168533
89	0xbe7dd775	-0.24789222
90	0x400b700b	2.1787136
91	0xbdd11623	-0.102093
92	0xbf9108e8	-1.1330843
93	0x3e2e7e9f	0.1704049
94	0xbeb82258	-0.35963702
95	0x3b84fa6d	0.0040581734
96	0xbf08c036	-0.5341829
97	0xbe376af9	-0.179119
98	0x3edf5345	0.43618217
99	0xbf093e79	-0.5361095
100	0xbe881811	-0.2658086
101	0xbe56aedc	-0.20965141
102	0xbfce9ed6	-1.6142223
103	0xbc9c0eb3	-0.019049978
104	0xc05c6bdb	-3.444083
105	0xbf786d49	-0.97041756
106	0x3d9a1a1d	0.07524512
107	0xbd745f6a	-0.059661306
108	0xbf3ce186	-0.7378162
109	0x3ed33fc3	0.41259584
110	0xc05425b1	-3.3148005
111	0xbef14cd1	-0.4712892
112	0xbe4da049	-0.20080675
113	0xbe709a17	-0.2349628
114	0xc03625d5	-2.846059
115	0xbf414d6d	-0.7550877
116	0xc049ecf9	-3.1550887
117	0xbfc85ef3	-1.5653976
118	0xbd0f904d	-0.035049725
119	0x3ddd199f	0.107959025
120	0xbfc0fb14	-1.5076623
121	0xc0be1ef8	-5.9412804
122	0x3e8d5e5f	0.27611062
123	0xbf837836	-1.027106
124	0x3e36a4ab	0.17836253
125	0x3eb7994a	0.35859138
126	0xbecee797	-0.40411064
127	0xbd9e332f	-0.07724606
128	0x3e15d808	0.1463319
129	0xbe358d1f	-0.17729615
130	0xbebb6ddc	-0.36607254
131	0x3e346d34	0.17619783
132	0xbec46c5b	-0.3836392
133	0xc03f15b3	-2.9856994
134	0x3e98980e	0.2980351
135	0xbf189610	-0.5960398
136	0x3e91dba2	0.2848788
137	0x3ebad5e4	0.3649131
138	0xbe52bcca	-0.2057983
139	0xbe62de49	-0.22155108
140	0xbe163047	-0.14666854
141	0xbea59b49	-0.32345036
142	0xbe6d1b02	-0.23154834
143	0x3d0e3cf1	0.034726087
144	0xbfa942bb	-1.322349
145	0xbea35bca	-0.31905967
146	0xbeab44b7	-0.33450863
147	0xbf37def0	-0.7182455
148	0xbaa66467	-0.0012694717
149	0x3d5412ee	0.051775865
150	0xbff1a3cd	-1.8878113
151	0xc091abcd	-4.552222
152	0xbfec3df5	-1.8456408
153	0xbfcc08eb	-1.5940222
154	0x3e929a65	0.2863342
155	0xbde097df	-0.10966467
156	0xbf967932	-1.1755736
157	0x3c969bb0	0.018384784
158	0x3e466da6	0.19377765
159	0xbf43e2b0	-0.7651777
160	0x3e8707a1	0.26373008
161	0x3e5d2051	0.21594359
162	0xc0290940	-2.6411896
163	0xbe996354	-0.29958594
164	0xc0086302	-2.131043
165	0xbeef1c30	-0.46701193
166	0x3e08364b	0.13301961
167	0xbde21428	-0.11039001
168	0x3d8d1453	0.06888642
169	0x3be10783	0.0068673505
170	0xbe4a558d	-0.19759198
171	0x3e859417	0.26089546
172	0xbeb34d82	-0.3502007
173	0xbe51f4bc	-0.20503515
174	0x3e88be42	0.26707655
175	0x3dfdbec3	0.123899005
176	0xbeb1f6fb	-0.34758744
177	0x3dea203c	0.114319295
178	0xbdc7db28	-0.097585976
179	0xbec8f7dc	-0.39251602
180	0xc0b1cf02	-5.5565195
181	0x3e9d4c37	0.3072221
182	0x3ecabf3b	0.39599022
183	0x3f4088e2	0.75208867
184	0x3e125437	0.14289938
185	0xbdf3a542	-0.11896755
186	0xbf67ec55	-0.9059499
187	0x3ecc9a0f	0.39961287
188	0xc02e3f0a	-2.7225976
189	0xbe0ed652	-0.13948944
190	0xbd6791c4	-0.056535497
191	0xbeb2952f	-0.34879443
192	0x3e66b13f	0.22528552
193	0xc000f749	-2.015093
194	0x3f2946d9	0.6612373
195	0xbffe903a	-1.9887764
196	0xbf062ffd	-0.52416974
197	0xbeb1c89f	-0.34723374
198	0x3ff0e74b	1.8820585
199	0x3cfd35ba	0.030909408
200	0xbecbe63c	-0.39824092
201	0x3f01b45b	0.50665826
202	0xbf5a2b69	-0.8522249
203	0xbf823c34	-1.0174623
204	0xbe5eeb38	-0.21769416
205	0xbe605d9a	-0.21910706
206	0x3e9c91d5	0.3058001
207	0xbe2f29f8	-0.17105854
208	0xbe877439	-0.26455858
209	0xbe0c5993	-0.13706045
210	0x3fdf9d94	1.7469964
211	0x3fbe4651	1.4865209
212	0xbe8763b8	-0.26443267
213	0xbc63e077	-0.013908497
214	0xbf0d697a	-0.5523907
215	0xbf7744a6	-0.96589124
216	0x3b9a1076	0.0047016693
217	0x3d8698e6	0.06572132
218	0x3e1d9a5d	0.15390916
219	0xbeb346d4	-0.35014975
220	0xbe9dc127	-0.30811426
221	0xbe1d09b4	-0.15335733
222	0x3f188610	0.59579563
223	0x3fd9cd53	1.7015785
224	0x3e0d5370	0.1380136
225	0xbf1af259	-0.60526043
226	0xbea30584	-0.31840146
227	0x3d5bb255	0.053636868
228	0xbfcc448b	-1.5958418
229	0x3ec3b088	0.3822062
230	0xc0715bf1	-3.7712367
231	0xbf48902e	-0.78345
232	0xbe7077f8	-0.23483264
233	0xbd87a0b2	-0.06622447
234	0x3d028ff7	0.031875577
235	0x3e6b3057	0.22967659
236	0xbdee643a	-0.116402104
237	0x3e8c3f9d	0.27392283
238	0xbe7c4652	-0.246362
239	0xbe98c7ec	-0.29840028
240	0x3f3d44d3	0.7393314
241	0xbf447504	-0.7674105
242	0xc086bdd8	-4.2106743
243	0x3f635837	0.8880648
244	0x3ef3a5fa	0.47587568
245	0x3ee383f0	0.44436598
246	0x3dc30d07	0.09523969
247	0xbeabcfbe	-0.33556932
248	0xbeb7d40f	-0.35903975
249	0x3e1c360a	0.1525499
250	0xbd484f1a	-0.048903562
251	0xbe81b16b	-0.25330672
252	0xbf5efe1b	-0.87106484
253	0x3ef6fbc9	0.48238972
254	0xc0898bcb	-4.2983146
255	0xbec4473c	-0.38335598

fc1.bias f4 [64]
0	0xbe994330	-0.29934072
1	0x3e7c4e8f	0.24639343
2	0x3ea20df8	0.31651282
3	0xbf4c7be3	-0.79876536
4	0xbe9d89e7	-0.30769274
5	0x3e47e44d	0.19520684
6	0xbe8eba49	-0.278765
7	0x3ea128ec	0.31476533
8	0x3a86ff09	0.0010299395
9	0xbef27c8b	-0.47360644
10	0xbe98aab5	-0.2981774
11	0x3c44dc9f	0.012015491
12	0xbee44a0a	-0.44587737
13	0xbec2a47b	-0.38016114
14	0x3df514c1	0.11966849
15	0x3ea453fb	0.32095322
16	0x3e81ffc6	0.25390452
17	0xbe244d19	-0.16045035
18	0xbea9a1a9	-0.3313115
19	0xbea1b1f7	-0.3158109
20	0xbd926363	-0.07147863
21	0x3e98425d	0.2973813
22	0x3e70214d	0.23450203
23	0x3e33fdc3	0.17577271
24	0xbe9abf11	-0.30223897
25	0xbd5e776f	-0.05431312
26	0xbe3f2761	-0.18667366
27	0x3bdedfc5	0.0068015778
28	0xbe65ee5a	-0.22454205
29	0xbe693515	-0.22774155
30	0xbd2b1170	-0.041764677
31	0xbee04586	-0.43803042
32	0xbe973fea	-0.2954095
33	0xbf8ebb00	-1.1150818
34	0xbb931c7f	-0.004489481
35	0xbf378477	-0.716865
36	0xbebc276d	-0.3674883
37	0xbdd22d04	-0.10262492
38	0xbf4bb6ed	-0.79576
39	0x3cde3da4	0.027129002
40	0x3f28033b	0.6562993
41	0x3e142dc5	0.14470585
42	0x3bf713cf	0.007540203
43	0x3e08b0f4	0.13348752
44	0xbde018c6	-0.10942225
45	0xbc6750e5	-0.014118408
46	0xbeb13fd8	-0.3461902
47	0x3dfe82b9	0.12427277
48	0x3eec8e46	0.46202296
49	0xbe694908	-0.22781765
50	0x3e4f7ab1	0.20261647
51	0xbdcb60cb	-0.09930571
52	0x3eaebdd9	0.34129217
53	0x3eb87013	0.36023006
54	0xbe98f964	-0.2987777
55	0xbf4358e2	-0.763075
56	0x3e22aa46	0.15885267
57	0xbeb52818	-0.35382152
58	0xbe63adb1	-0.22234227
59	0xbebff448	-0.3749106
60	0xbde5f92b	-0.11229166
61	0xbe1c3b9c	-0.15257114
62	0xbda54286	-0.08069329
63	0xbe969388	-0.29409432

fc2.weight f4 [64, 64]
0	0x3f4c2d5f	0.7975673
1	0xbdd66c1e	-0.104698405
2	0xbf18ba8f	-0.59659666
3	0x3eedfb98	0.46481013
4	0xbf0e3fe6	-0.5556625
5	0xbc238782	-0.009981038
6	0x3df87394	0.1213142
7	0x3d29cda9	0.0414559
8	0x3dea1b8c	0.114310354
9	0xbfde6c19	-1.7376739
10	0x3d981aca	0.074269846
11	0x3d50d5c8	0.050985128
12	0x3eea3028	0.45739865
13	0xbcda3088	-0.02663447
14	0x3f370537	0.7149233
15	0xbf0802b4	-0.53129125
16	0xbe5e2d4d	-0.21696968
17	0x3e4027e3	0.18765216
18	0x3f10f0f9	0.56617695
19	0x3f4a46c9	0.7901426
20	0xbe8f73b6	-0.28017968
21	0x3dc6adfe	0.09701155
22	0xbd6bb92a	-0.057549633
23	0x3d29dbac	0.04146926
24	0xbe15f3ef	-0.14643835
25	0xbf546ab7	-0.82975334
26	0x3dbf0b8c	0.09328374
27	0x3e2e0949	0.1699573
28	0x3d924f7c	0.07144067
29	0xbd0b22b0	-0.033968627
30	0xbe7d51b6	-0.24738201
31	0x3bcbdbfa	0.0062212916
32	0x3f49d07e	0.7883376
33	0xbd9650cf	-0.07339632
34	0x3d708770	0.058722913
35	0x3dcbc10e	0.09948932
36	0xbdc7bc04	-0.09752658
37	0x3f1acfbe	0.6047324
38	0x3ed78d3c	0.4209994
39	0x3d350cc5	0.04420163
40	0xbe20e6bb	-0.15713017
41	0x3de48014	0.111572415
42	0x3ed4038d	0.4140896
43	0xbd7092d4	-0.058733776
44	0x3f5fcd16	0.8742231
45	0x3d80a20f	0.0628091
46	0x3e7b6d67	0.24553452
47	0xbb21632a	-0.0024625757
48	0xbf432aea	-0.76237357
49	0xbfb6cfc2	-1.4282153
50	0x3e8bb015	0.27282777
51	0x3f26c2ef	0.65141195
52	0xbef62d42	-0.48081404
53	0x3d1c8410	0.038211882
54	0xbbedf1b6	-0.00726148
55	0x3f3211d1	0.69558436
56	0xbd66e8c6	-0.056374334
57	0xbd1a59c4	-0.037683263
58	0x3f0f6867	0.5601868
59	0x3d542903	0.051796924
60	0xbe0f11ed	-0.13971682
61	0xbd35a5cf	-0.04434758
62	0x3b6cdcb2	0.0036142287
63	0xbf37ff9c	-0.71874404
64	0xbe13242f	-0.14369272
65	0xbd8cfd4c	-0.0688425
66	0xbfa73253	-1.3062233
67	0xbfd4106e	-1.6567514
68	0xc018e79c	-2.3891363
69	0xbd846788	-0.064650595
70	0x3cc93350	0.0245606
71	0xbd8e1cee	-0.06939112
72	0xbdeac5f0	-0.11463535
73	0xbf2be247	-0.67142147
74	0xbd62a698	-0.055334657
75	0xbdd3190e	-0.10307513
76	0xbd6d3d48	-0.05791977
77	0xbccd6578	-0.025072798
78	0xbe6f5e41	-0.23375799
79	0xbfbee1d6	-1.491267
80	0xbe3fb139	-0.18719949
81	0xbeb37606	-0.35050982
82	0xbe7ab350	-0.24482465
83	0x3ed9255d	0.42411318
84	0x3f3b2ecb	0.73118275
85	0x3da5d2d4	0.08096853
86	0xbe15051d	-0.14552732
87	0xbd8d1836	-0.068893835
88	0xbe76419e	-0.24048468
89	0xbf50be44	-0.8154032
90	0x3e08c4ee	0.13356373
91	0xbeead411	-0.4586492
92	0xbd7e69c8	-0.0621126
93	0xbda13016	-0.078705
94	0xbf9d45a1	-1.2286874
95	0xbe01d761	-0.12679817
96	0x3eb64d71	0.35605958
97	0xc02168e3	-2.5220268
98	0xbdb6af62	-0.0892017
99	0xbfe405af	-1.7814234
100	0x3d1aabd0	0.03776151
101	0xbf91dbbd	-1.1395184
102	0xbe8e1e05	-0.27757278
103	0x3d3be7a0	0.04587519
104	0xbf8c0cf6	-1.0941455
105	0xbcd16240	-0.025559545
106	0xbeee533b	-0.46547875
107	0x3d46d0f8	0.048539132
108	0xbeaaf01c	-0.33386314
109	0xbdb0a15a	-0.08624525
110	0xbd887363	-0.06662633
111	0xbb518bc0	-0.0031974167
112	0xbe95bce8	-0.29245687
113	0x3e42a364	0.19007641
114	0x3d973f99	0.07385177
115	0x3f09d038	0.5383334
116	0xc02aae61	-2.6668932
117	0x3d5e3f20	0.05425942
118	0x3c90c558	0.017672226
119	0x3fd4493e	1.6584852
120	0xbdbb42c8	-0.09143597
121	0x3d1003f8	0.035160035
122	0xbf790a8c	-0.9728172
123	0x3dd4597a	0.10368629
124	0x3f70584b	0.93884724
125	0x3defca7e	0.11708544
126	0x3f5dea24	0.86685395
127	0xbed4c166	-0.415538
128	0x3f4d5b54	0.8021748
129	0x3e39800c	0.18115252
130	0xbeaa5df2	-0.332748
131	0x3fa51950	1.289835
132	0xbfc78274	-1.5586686
133	0x3d51910f	0.05116373
134	0xbd1a5006	-0.037673973
135	0x3c3eeedd	0.011653629
136	0x3c2a0090	0.010376111
137	0xbfcf8cee	-1.6214883
138	0x3d731a38	0.059351176
139	0x3dcfb3fa	0.1014175
140	0x3ed38fdd	0.41320696
141	0x3dccd8e4	0.10002306
142	0x3f01cdab	0.5070445
143	0xbfe57186	-1.792527
144	0x3e2453d5	0.16047604
145	0x3f841120	1.0317726
146	0x3e951be1	0.29122832
147	0x3fa92d03	1.3216861
148	0xbfddb4eb	-1.7320837
149	0x3d93f501	0.07224465
150	0x3f3ca3c5	0.7368739
151	0x3da78c5e	0.0818107
152	0x3e8b6189	0.2722285
153	0x3e241e50	0.16027188
154	0xbf0bca71	-0.54605776
155	0x3eef8360	0.4677992
156	0xbd89ba66	-0.06725006
157	0x3d5ee6c8	0.05441931
158	0xbf47b384	-0.78008294
159	0x3de26568	0.11054498
160	0x3f97136b	1.1802801
161	0x3e2a5642	0.16634467
162	0x3d1acc98	0.037792772
163	0xbe65a1eb	-0.22425048
164	0x3c856728	0.01628454
165	0x3f8db849	1.1071864
166	0x3e791f71	0.243284
167	0x3d54ab9a	0.051921465
168	0x3f91c416	1.1387966
169	0x3d7f18e4	0.062279597
170	0x3ed985a0	0.4248476
171	0x3cdd3cf0	0.027006596
172	0x3f04784d	0.51746064
173	0x3d8fbc25	0.070183076
174	0x3d2b38a2	0.041802056
175	0x3ddf171c	0.1089308
176	0xbfcf8600	-1.6212769
177	0xc00ba7f8	-2.182127
178	0xbde1fc06	-0.11034398
179	0x3ec1724d	0.37782517
180	0xc00036dd	-2.0033486
181	0x3df9f594	0.122050434
182	0x3d2a347f	0.04155397
183	0xbec07073	-0.37585792
184	0x3e12b7ab	0.14327876
185	0xbdbd7bea	-0.0925215
186	0x3ed96da9	0.42466477
187	0x3f311787	0.69176525
188	0xbfdfb719	-1.7477752
189	0x3cc0d6fe	0.023540016
190	0x3feee47b	1.8663477
191	0xbf089618	-0.53354025
192	0xbf095119	-0.5363937
193	0x3d13423c	0.035951838
194	0x3fcb5b82	1.5887301
195	0x3f52984a	0.82263625
196	0x3f9fa1c8	1.2471247
197	0xbdaeba38	-0.08531612
198	0x3d73a80a	0.059486426
199	0x3dbc62e2	0.09198548
200	0x3dda11f0	0.106479526
201	0xbf8906fd	-1.0705258
202	0xbcba0928	-0.022709444
203	0x3c5982c0	0.013275802
204	0x3e681d9b	0.22667544
205	0xbc9bbee8	-0.01901193
206	0x3ecab293	0.39589366
207	0x3efdef74	0.4959675
208	0xbf4a0ff7	-0.7893061
209	0xbe2d3862	-0.1691604
210	0x3b80679d	0.0039186017
211	0x3d22f89f	0.039787885
212	0x3f13a513	0.5767376
213	0x3bbf77c0	0.0058431327
214	0x3f133aec	0.5751178
215	0xbd9971a8	-0.07492381
216	0xbe6df2c8	-0.23237145
217	0xbeaff22e	-0.34364456
218	0xbedd487f	-0.43219373
219	0x3e0922e7	0.1339222
220	0xbd34ac08	-0.044109374
221	0xbccd7c28	-0.025083616
222	0xbe7ac6e7	-0.24489938
223	0xbd85b613	-0.065288685
224	0xbe022114	-0.12707931
225	0xbecd8eda	-0.4014805
226	0xbd6f10cc	-0.058365628
227	0x3e40bf21	0.1882291
228	0xbc58b150	-0.013225868
229	0x3e391464	0.18074185
230	0xbe0e9bc6	-0.1392661
231	0xbd8e24c8	-0.06940609
232	0xbed336f0	-0.4125285
233	0xbc047710	-0.008085027
234	0xbe177d3b	-0.14793865
235	0xbdfde400	-0.12397003
236	0x3ece35c4	0.40275395
237	0x3d4b0948	0.0495694
238	0xbf089b4a	-0.5336195
239	0x3d1409a0	0.03614199
240	0x3fa6f5b8	1.3043737
241	0xbeebc653	-0.46049747
242	0xbe577952	-0.21042374
243	0xbe16eab4	-0.1473797
244	0x3f864ef4	1.0492845
245	0x3c4b0f40	0.012393773
246	0x3d8865d5	0.06660048
247	0xbd97161e	-0.073772654
248	0xbd106b2a	-0.03525845
249	0xbd9c5e90	-0.07635224
250	0xbf358d1b	-0.70918435
251	0xbea00ca4	-0.31259644
252	0x3e9758ed	0.29560032
253	0xbc88deaa	-0.016707737
254	0xbf0d72d8	-0.5525336
255	0xbdf13f73	-0.1177968

fc2.bias f4 [64]
0	0xbf05581c	-0.5208757
1	0x3de59f80	0.11212063
2	0x3f9dbdd8	1.2323561
3	0xbfa5cfa6	-1.2953994
4	0xbd2edbf8	-0.042690247
5	0x3f9ad26e	1.2095468
6	0xbf1be4cd	-0.60896
7	0x3fde6d7b	1.7377161
8	0xbd80d148	-0.06289917
9	0xbdfd5e41	-0.12371493
10	0xbf4abac6	-0.79191244
11	0xbc85749c	-0.016290955
12	0xbd8369c8	-0.064166605
13	0x3ea69876	0.32538193
14	0x3dca6bf4	0.09883872
15	0x3f09c998	0.5382323
16	0x404814fa	3.1262803
17	0xbf8c6004	-1.0966802
18	0x3e7b0745	0.24514492
19	0xbe759e66	-0.23986205
20	0x3f8e81f7	1.1133412
21	0xbf0d556e	-0.5520848
22	0xbdbee400	-0.09320831
23	0xbe5884f0	-0.21144462
24	0xbbc1c872	-0.0059137875
25	0xbf7592ec	-0.9592731
26	0x3ecc43b1	0.39895394
27	0xbe56d6f1	-0.20980431
28	0xbe822b7a	-0.25423795
29	0xbf5401ed	-0.8281544
30	0x3eaea06b	0.34106764
31	0xbe73bf22	-0.2380338
32	0xbfc8e333	-1.5694336
33	0xbe53b0ae	-0.20672867
34	0xbe30d875	-0.17270072
35	0xbea81830	-0.32830954
36	0x3f9ae982	1.2102511
37	0x3f540e64	0.8283446
38	0x3faa4009	1.3300792
39	0xbd85b2db	-0.065282546
40	0xbd9a55bd	-0.075358845
41	0x3fd81caf	1.6883754
42	0xbd2f7920	-0.042840123
43	0xbfd5b0c2	-1.6694567
44	0x3deb8dde	0.115016684
45	0xbeca930a	-0.39565307
46	0xbe6f565b	-0.23372786
47	0xbf783a21	-0.969637
48	0xbf53e611	-0.8277293
49	0xbf0bef5d	-0.54662114
50	0xbf1c0856	-0.6095022
51	0xbf309716	-0.6898054
52	0x3e1857e5	0.14877279
53	0xbf8e16f2	-1.1100752
54	0xbee01702	-0.43767554
55	0xbda18aa6	-0.07887773
56	0xbf88fc1d	-1.0701939
57	0xbf0fd6d7	-0.56187195
58	0xbf073f52	-0.52830994
59	0xbe046119	-0.12927665
60	0x3b732325	0.0037099805
61	0xbda7c99e	-0.08192752
62	0xbffa350c	-1.9547439
63	0xbe05e61d	-0.13076063

fc3.weight f4 [4, 64]
0	0x3fe45411	1.7838155
1	0x3eeca1e0	0.4621725
2	0x3f745571	0.95442873
3	0x3e882fd3	0.26598987
4	0x3d95253b	0.07282492
5	0x3eac234b	0.33620676
6	0xbe76caea	-0.24100843
7	0xbe3ac401	-0.18238832
8	0x3db32bb6	0.087485716
9	0x3da2d5dc	0.07950947
10	0xbe1c61d4	-0.15271693
11	0xbc4aabee	-0.012370093
12	0xbc596910	-0.013269678
13	0xbf9051ce	-1.1274965
14	0x3f4ef1a1	0.80837446
15	0xbeaea101	-0.3410721
16	0x3f24291f	0.64125246
17	0x3f60ba23	0.8778402
18	0x3f85c42c	1.0450492
19	0xbd16a9ee	-0.03678315
20	0x3f143c5f	0.5790462
21	0x3e83ec2e	0.25766128
22	0x3ecaeaab	0.39632162
23	0x3f2f87f0	0.685668
24	0xbf28e51e	-0.65974605
25	0xbed295c7	-0.41129896
26	0x3f0ea22e	0.55716217
27	0xbcfff50b	-0.031244775
28	0xbe5ecf6c	-0.21758813
29	0xbee54394	-0.4477812
30	0x3f962be9	1.173215
31	0x3e30b898	0.17257917
32	0xbdfd0fa1	-0.123564966
33	0x3f6f2d2a	0.9342829
34	0x3d487c16	0.048946463
35	0xbf93b726	-1.1540267
36	0x3e960bcd	0.29305878
37	0x3fab2f3b	1.3373789
38	0xbf070261	-0.52738005
39	0xbd8b312f	-0.067964904
40	0x3cd7d588	0.026346937
41	0xbecae98b	-0.39631304
42	0xbc850246	-0.016236436
43	0x3ef6537c	0.4811057
44	0x3ec0147f	0.37515637
45	0xbf25a4bb	-0.64704484
46	0x3e304cf7	0.1721686
47	0xbe9218f5	-0.28534666
48	0xbcc09c09	-0.023511903
49	0xbe891068	-0.2677033
50	0xbe73ffe7	-0.23828088
51	0x3e79ffcd	0.24413987
52	0xbf415f03	-0.755356
53	0x3f18d35f	0.59697527
54	0xbf297a5e	-0.6620234
55	0xbe263172	-0.162298
56	0x3e9d3978	0.30707908
57	0x3ca00e82	0.019538168
58	0x3f414f4b	0.75511616
59	0x3cc1435f	0.023591695
60	0xbcdccc50	-0.026952893
61	0xb9a9fc5c	-0.00032422214
62	0x3f11d461	0.5696469
63	0x3e625d93	0.22106008
64	0x3fd909d1	1.6956121
65	0x3ef37f74	0.47558177
66	0x3ea655c1	0.324873
67	0x3f2a8d0b	0.66621464
68	0x3da6eb9a	0.08150406
69	0x3fa7aca7	1.3099564
70	0xbf1fa9f9	-0.6236873
71	0xbe6f8355	-0.23389943
72	0x3e623cc2	0.2209349
73	0x3d871f37	0.06597751
74	0x3e9f8939	0.3115938
75	0x3d3e401f	0.04644787
76	0xbd0dab25	-0.034587044
77	0xbf8c74ba	-1.0973122
78	0xbef8ed7c	-0.48618686
79	0xbf471ce0	-0.77778435
80	0x3f646e94	0.8923123
81	0xbf764fd5	-0.96215564
82	0x3f61f5c2	0.8826562
83	0xbc347073	-0.011013138
84	0x3f6bd50e	0.9212197
85	0x3f02740f	0.5095834
86	0xbfaf2e86	-1.3686073
87	0xbe71be31	-0.23607709
88	0x3f220b57	0.63298553
89	0x3e1eb9f3	0.15500621
90	0x3f52b38d	0.8230522
91	0x3cce9dfe	0.02522182
92	0x3e4d5893	0.2005332
93	0xbfad0a57	-1.351878
94	0x3f107738	0.56431913
95	0x3da1156c	0.07865414
96	0xbe1e2679	-0.15444364
97	0x3f393cca	0.7235838
98	0xbcbe1b63	-0.023206418
99	0xbf1d92be	-0.61552036
100	0xbf1d69f2	-0.61489785
101	0x4015169f	2.3295057
102	0xbf8d1e5a	-1.1024888
103	0xbc83210c	-0.016006969
104	0x3ca8bda2	0.020598236
105	0xbe1659e7	-0.14682733
106	0xbcb7d613	-0.022440946
107	0x3f52b4a7	0.82306904
108	0x3d7a41ec	0.061098024
109	0xbf23267b	-0.6373059
110	0x3d721740	0.059104204
111	0x3f4d7d05	0.8026889
112	0xbefb9a91	-0.49141362
113	0x3e02a0e2	0.12756684
114	0xbee409f3	-0.4453884
115	0xbe4367b8	-0.19082534
116	0x3ed8ab70	0.42318296
117	0x3ecc0601	0.3984833
118	0x3e943bd2	0.2895189
119	0x3dd1c0fe	0.102418885
120	0x3f232ddf	0.6374187
121	0xbfc034d9	-1.5016128
122	0x3f4cca58	0.7999625
123	0xbce91514	-0.028452434
124	0xbd7aa42c	-0.061191723
125	0xbb517b57	-0.0031964385
126	0x3eea099c	0.45710456
127	0xbe57dc87	-0.21080218
128	0x3fab457d	1.3380581
129	0xbe3c01c7	-0.18360053
130	0x3e8e7012	0.27819878
131	0x3e2c50de	0.16827723
132	0xbd02e2d3	-0.031954598
133	0xbef14648	-0.47123933
134	0x3c6ac2bf	0.014328658
135	0xbf1dec94	-0.61689115
136	0x3f6600af	0.89844793
137	0xbcce8874	-0.02521155
138	0xbf32eb8c	-0.69890666
139	0x3cfc5c4a	0.030805726
140	0x3dac60c7	0.08416896
141	0xbfc66f5a	-1.5502732
142	0xbdc582be	-0.09644078
143	0x3dca98a7	0.098923974
144	0x3e938e3a	0.28819448
145	0x3eaee324	0.3415767
146	0x3fabef4d	1.3432404
147	0xbc9b211b	-0.018936684
148	0x3f93c1e0	1.1543541
149	0x3f23e7bd	0.6402548
150	0x3e7414cd	0.2383606
151	0x3f533c67	0.8251404
152	0xbeee615a	-0.46558648
153	0xbea81125	-0.3282558
154	0x3e1a24e0	0.15053129
155	0xbd21a693	-0.0394655
156	0xbf29c5cf	-0.66317457
157	0xbedd60f5	-0.43238035
158	0x3fd0a596	1.6300533
159	0x3e27051f	0.16310547
160	0xbf858145	-1.0430075
161	0x3f2fc762	0.6866361
162	0x3ceae8f8	0.028675541
163	0xbf2268aa	-0.63440955
164	0x3e6a2f39	0.22869577
165	0x3faaebac	1.3353171
166	0xbebc1fcc	-0.3674301
167	0x3c86085e	0.016361412
168	0x3daa9fdb	0.08331271
169	0xbf8e7d5a	-1.1132004
170	0x3da410c0	0.08011007
171	0x3f419112	0.75611985
172	0x3ef0c08f	0.4702191
173	0x3d815897	0.06315725
174	0xbd925cf7	-0.07146638
175	0x3f56c27f	0.8389053
176	0x3ebd870c	0.37017095
177	0xbef381c9	-0.47559956
178	0xbed222be	-0.4104213
179	0x3e126452	0.14296082
180	0xbebdb69f	-0.3705339
181	0x3f05491e	0.5206469
182	0xbc997e51	-0.01873699
183	0x3cba3789	0.02273156
184	0x3f03d35f	0.514944
185	0x3d3d9b46	0.04629066
186	0x3fe05789	1.7526714
187	0xbd9cd341	-0.07657481
188	0x3d8376cc	0.06419143
189	0xbd186274	-0.037203267
190	0x3eb4fb0f	0.35347793
191	0xbea61571	-0.32438233
192	0x3f93551c	1.1510348
193	0xbf7f1984	-0.9964831
194	0x3f02c631	0.51083666
195	0xbcf5d89c	-0.030010514
196	0xbce5eb9d	-0.02806645
197	0x3ccfd249	0.025368826
198	0xbf770cd1	-0.9650393
199	0x3f67e3c8	0.9058194
200	0xbfe6ff92	-1.8046744
201	0xbd032ec1	-0.03202701
202	0x3ef68078	0.4814489
203	0x3d283848	0.0410693
204	0x3a1182a4	0.0005550778
205	0xbf85ad1d	-1.0443455
206	0x3fad2aa0	1.3528633
207	0x3ef578b7	0.4794366
208	0x3d772c6d	0.060345102
209	0x3eb542d3	0.35402545
210	0x3f8da317	1.1065396
211	0x3c2ad2ac	0.010426205
212	0x3ef21d2b	0.47287878
213	0x3eb7dbc6	0.3590986
214	0xbecff311	-0.40615132
215	0x3f3ad264	0.7297728
216	0x3ecd1988	0.4005854
217	0xbf3807e5	-0.71887046
218	0x3fc8c9e5	1.5686613
219	0xbcfc1c91	-0.03077534
220	0x3eaff1f8	0.34364295
221	0xbe623590	-0.22090745
222	0x3fd9a58f	1.700365
223	0xbc52cb71	-0.012865887
224	0xbfb91715	-1.4460169
225	0x3e202b2a	0.15641466
226	0xbd2c0f78	-0.04200694
227	0x3e338da5	0.17534502
228	0xbf467e27	-0.77536243
229	0x3ff5f029	1.9213916
230	0xbe5d3b52	-0.2160466
231	0x3a862287	0.0010233679
232	0xbc9dfb13	-0.01928476
233	0xbf46aae9	-0.7760454
234	0x3dcee145	0.101015605
235	0x3f42e58b	0.76131505
236	0xbe841090	-0.25793886
237	0xbd5a3d7f	-0.053281303
238	0xbd370e35	-0.044691283
239	0x3ed398c3	0.41327485
240	0xbcc3853d	-0.023867244
241	0xbf0f59d3	-0.55996436
242	0xbf11435f	-0.56743425
243	0xbedc42e3	-0.4301978
244	0x3fe7f108	1.8120432
245	0x3fb943d0	1.447382
246	0xbe78d99e	-0.24301764
247	0x3ce79cc0	0.028272986
248	0x3f68dd6f	0.9096288
249	0x3eb9c41a	0.36282426
250	0x3f8999e8	1.0750093
251	0xbd016ddf	-0.031598922
252	0xbb500239	-0.0031739606
253	0x3db64398	0.08899611
254	0x3f6f4b75	0.93474513
255	0xbee7dfe1	-0.45287994

fc3.bias f4 [4]
0	0x3fb7a2bd	1.4346539
1	0x3f73ce0c	0.9523628
2	0x402e9953	2.7281082
3	0xbf341b55	-0.70354205
